checkpoint.pth (torch, 39149 bytes, 7 tensors)

fc1.weight f4 [128, 4]
00000000: 3156 d43e 478a fcbe 44fc 84c0 8e27 70bf
00000010: 7458 0dbf c390 143f f3a7 5140 0104 8a3f
00000020: a414 07be 3019 823d 83e0 01be 3718 8ebd
00000030: 73d2 34bf 9bac c4be a88a 49be d3a2 a7bc
00000040: f861 883f bad8 11bf 6c88 4bc0 639c 86bf
00000050: f742 37bd bc6a bf3e 8a19 253e 84d9 e83e
00000060: 70fb 64be 879c 5cbc 1589 033f 10cc e2be
00000070: c023 f8bf 52d8 7e3f 3911 8840 fdf3 c53f
00000080: e949 28bf 9148 ffbe fffe 15bf 06cb 0cbf
00000090: 74c8 cf3d 0ed6 a73f 1bfd 5e40 ddda 693f
000000a0: b2ba 40bd 66c6 b6be a097 09bd fe5c f6be
000000b0: 70dc 9abf a0ed 883e ceae 4840 ffff 7d3f
000000c0: 5585 01bf c177 fe3e 20b9 6b40 0df9 9c3f
000000d0: e2f3 383f 6fb5 35bf 8dfc 31c0 fe16 96bf
000000e0: c3f0 7a3d 33a2 dbbe c6c9 01bf fea2 a0be
000000f0: 9d11 123f d20f c73e 5104 1540 4c03 4b3f
00000100: 6695 733e e755 c1bd 4737 d1bc 5746 043e
00000110: cc5f fd3f 10fa 0e3e 89e8 29c0 00b1 40bf
00000120: 3d10 323d 020d e03e 5cbb 413f 45af ff3e
00000130: 1bc9 943d 40d7 e8be 298c d3bd 3f38 c3be
00000140: 90fa 34bf 7316 b8be 56a8 2fc0 baeb 8ebf
00000150: 201e a83d 26c4 c3bd c7bb 90bd 85cb 5ebe
00000160: 3185 95be 9e82 533e 073a 5940 f34c 843f
00000170: a589 9f3f 5acb 05bf 63b8 76c0 1f49 72bf
00000180: 8ece 103f 82fc 1bbf 05bf 77c0 884e 7bbf
00000190: a71f 0440 f218 c1be 7803 2ec0 0b89 42bf
000001a0: 867c 33bf 8237 65bf a87d 68c0 5b65 90bf
000001b0: 47d0 e3bd ab82 cc3d 7ca4 f8bd da6c 9d3e
000001c0: 4963 f2be d141 a43f 2c8e 1140 b825 a7be
000001d0: d98f 8abe 15b7 353d d879 883e f757 123e
000001e0: 15b0 52bf 8438 553f a02d 7340 ec1f 9d3f
000001f0: b340 0cbf 1ba4 6cbf eb59 52c0 2420 81bf
00000200: 166e 313d 468a 24bf b4a1 d2be 19c1 7f3e
00000210: f5d8 d0be 93d6 ecbc 6f50 dd3e da4f 5bbd
00000220: 8462 1abe 7cbe a53e 37ff 5d40 cc17 893f
00000230: ef26 abbe a72d 8a3f bad2 c53f 69b2 d5be
00000240: 5c74 09c0 107c 1e3d 9d25 1b40 bc11 e53e
00000250: 74b1 75be d91b ddbe c8af 19bf f62e e4be
00000260: b6a7 103f 9faf 09bf ce72 47c0 fb47 a8bf
00000270: 2eb0 9f3e 8a52 c8be f07b d8bd 1c9a 4fbe
00000280: 58f6 48be b681 56be e74d 04bf 1ad4 cdbe
00000290: 5546 2c3f d096 2bbf 0614 f3bf cc60 133f
000002a0: 6212 51bf 90a6 3fbe cc46 2c3f 58c1 18be
000002b0: 7819 c53e 5625 0ebe 0bdf 69bf 9748 aa3e
000002c0: eebd 333f 67f8 4ebf 65ba 70c0 b723 9dbf
000002d0: ca5a 9c3e 4896 623f cb50 7a40 0577 623f
000002e0: 12d6 263e 8821 f53d 24d4 e4bd 6e51 bdbd
000002f0: 9d34 0dbf ab89 ac3e 183e 503f c993 dd3e
00000300: 21aa 103f 087f 05bf b895 69c0 f703 8cbf
00000310: ed4b c53e 3739 aabe a9d3 60c0 97db 5bbf
00000320: e471 0b3e 0dbc 803e 6a19 5bc0 38f9 dabf
00000330: 67db e9be 4277 be3e 8f8f 2a3e d398 fd3e
00000340: 0175 c53d ce96 783c f466 8d3a a3fc 62bd
00000350: 7e02 70bd 7299 1ebe 44ee 6b3d 32e7 ad3d
00000360: 7c14 71be 914e 97bf 53a7 53c0 c34f 7cbf
00000370: 96b3 31bf 5e36 cf3f 3b25 ff3f 832c 20be
00000380: 4fb9 1bbf 1464 1f3e 2a46 85be c366 9bbd
00000390: 21fe 51be 6012 623d c2fa 383c f213 a83e
000003a0: cf12 40bd cc49 f93e 318e fd3e 488d 9bbe
000003b0: 7c39 093e f7fc a3be 4242 84be a326 c43d
000003c0: 674e 453f c868 0c3f 2a89 31bf df2d 93be
000003d0: 8670 26be 8b97 95bf f576 22c0 916b 8cbf
000003e0: bdc4 cdbc 4ac8 8abe 2993 f1be 3061 023e
000003f0: 85fa b73e 4c14 4fbe 0729 ccbe 7a16 57be
0.4147201 -0.49324247 -4.155794 -0.93810356 -0.55213094 0.5803339 3.2758758 1.0782472
-0.13191468 0.063524604 -0.126833 -0.06938212 -0.7063362 -0.38412938 -0.196818 -0.020463383
1.0654898 -0.56971323 -3.1802015 -1.0516475 -0.044741597 0.3738612 0.16123024 0.4547845
-0.22361541 -0.013465053 0.51381046 -0.44296312 -1.938591 0.9954883 4.2521024 1.5465084
-0.6573778 -0.4986005 -0.5859222 -0.5499729 0.10145655 1.3112199 3.4841983 0.91349584
-0.047053047 -0.3569824 -0.033591866 -0.48117822 -1.2098522 0.26743793 3.1356692 0.99218744
-0.50594074 0.4970074 3.6831741 1.2263504 0.72247136 -0.7097997 -2.7810395 -1.1725767
0.061264765 -0.42897186 -0.50698507 -0.31374353 0.57058126 0.38879257 2.3283885 0.79301906
0.2378746 -0.09440213 -0.025539054 0.12917458 1.979486 0.13962579 -2.6548178 -0.7527008
0.043472517 0.43759924 0.7567651 0.49938408 0.0726492 -0.45476723 -0.10329468 -0.3812885
-0.7069483 -0.35954627 -2.7446494 -1.1165688 0.08208871 -0.09558897 -0.07067066 -0.21757324
-0.2920318 0.20655295 3.3941667 1.0335983 1.2463881 -0.52263415 -3.855004 -0.94642824
0.5656518 -0.6093217 -3.871034 -0.98166704 2.064432 -0.37714344 -2.7189617 -0.7599036
-0.7011188 -0.89537823 -3.6326694 -1.1280931 -0.1112371 0.099858604 -0.12140748 0.3074711
-0.47341374 1.2832586 2.2743025 -0.32645965 -0.27062872 0.044364054 0.2665546 0.14291368
-0.8229993 0.8328936 3.7996597 1.2275367 -0.54786223 -0.92437905 -3.2867382 -1.0087934
0.043317877 -0.6427349 -0.41138995 0.24976005 -0.40790525 -0.02891091 0.43225428 -0.05354295
-0.15076643 0.3237189 3.468702 1.0710387 -0.3342814 1.0795182 1.5454934 -0.4173768
-2.147727 0.038692534 2.4241707 0.44740093 -0.23993474 -0.4318531 -0.60033846 -0.44567078
0.56505907 -0.537836 -3.1163821 -1.3146967 0.31189102 -0.39125472 -0.10570514 -0.20273632
-0.19625223 -0.20947918 -0.5168137 -0.40200883 0.6729482 -0.67026997 -1.8990486 0.57569575
-0.81668675 -0.18715882 0.6729553 -0.14917505 0.38495994 -0.1388143 -0.9135596 0.33258507
0.70211685 -0.8084778 -3.7613766 -1.2276524 0.30538017 0.8851056 3.9111812 0.8846286
0.16292599 0.11969286 -0.11173275 -0.09244047 -0.55158406 0.33698782 0.8134475 0.43276814
0.56509596 -0.5214696 -3.649763 -1.093871 0.3853449 -0.33246776 -3.5129187 -0.8588194
0.13617665 0.2514347 -3.4234262 -1.7107306 -0.45675203 0.37200361 0.16656326 0.49530658
0.09641457 0.015172673 0.0010788129 -0.055416714 -0.058596127 -0.15488222 0.057600275 0.08491363
-0.2354297 -1.1820852 -3.3070877 -0.98559207 -0.6941465 1.6188467 1.9933237 -0.1564198
-0.60829633 0.1556552 -0.26030093 -0.075879596 -0.20507099 0.055193305 0.011290254 0.32827717
-0.046892937 0.48689115 0.49522546 -0.30381227 0.13400835 -0.32028934 -0.258318 0.09577682
0.7707276 0.54847383 -0.6934992 -0.28745934 -0.16253862 -1.1686872 -2.5385106 -1.0970327
-0.025118226 -0.27105933 -0.47182587 0.12732387 0.3593332 -0.20222586 -0.3987505 -0.21004668

fc1.bias f4 [128]
00000000: 2bfc 793f a00a 54bf e61d af3f 041a b13f
00000010: 936a 2cbf 2e4a a23f 2db2 c23f a2e6 a33f
00000020: 4171 ad3f 6bc2 d9bd 8139 b43f ec87 4fbf
00000030: 00cc 59bf 0860 45bf 4651 d73f d178 30be
00000040: 9e01 a23f 1573 9cbd e531 d43f 6791 d83f
00000050: bfba 04bf 0558 d5be f404 3fbf 7546 873f
00000060: 507f 753f df93 11bf cff5 a8be b54f aa3f
00000070: 99ee 69bd 255b a23f d413 853f f185 b4be
00000080: 1af7 9d3f bf06 ce3f 1680 3abf 820b 253f
00000090: 8c8a ccbd 2b95 dc3f c3d3 42bf d26a f5be
000000a0: d020 dc3f 4ed8 5c3e a897 9c3f a69e a03f
000000b0: cc06 883f 37d5 203f 7618 c73f 76b2 9b3f
000000c0: 9364 61bf a553 42bf dd05 1abf b02d b53f
000000d0: e421 c5be 1fa7 d33f 083f ac3e 58f8 ae3e
000000e0: 62ae cb3f 9b96 bb3f b693 cb3f 0339 c23f
000000f0: b563 963f b6ac cebe 9aea 983f bd08 cf3f
00000100: 0117 6f3f 5f6a 6ebf a635 b73f 123e d93f
00000110: 8668 f53e 6b39 3fbf 0661 40bf 18bc a83f
00000120: e0a3 963f 3f00 51bf a8a9 a63f f606 b23f
00000130: 523d d23f 09c3 cc3f 784c 8f3f e024 9abe
00000140: d853 e7be 4ed0 d43f c5a9 bd3f 2422 bb3f
00000150: bbfc 83be 6cc5 d53f 5ba5 d23f 1d68 d03f
00000160: 30f5 d7be 2dd1 b8be b025 97be 8a88 d13f
00000170: 26ed 513e 4c45 0bbf c70d bd3f e9bc dcbe
00000180: 2fd5 5bbe ef1c aa3e 3af7 9b3f af5c 54bf
00000190: ad7b cb3f 677c e2be 75de b33f 6ba6 d33f
000001a0: 09b2 c63f 21ae a93f 30a4 d43f 494b 9f3f
000001b0: f2ca dcbe 9910 d73f 80dd 513f 92e7 06bf
000001c0: 66d8 543f 1d2f 0bbf ca4f d03f 45e0 943f
000001d0: 4569 1abf 2794 8c3f ed29 ca3f b01f a23f
000001e0: 35cd af3f 7527 9d3f 231c b03f fa4a 7f3f
000001f0: 2403 00bf f941 eebe 8f91 4cbf 2da9 b03f
0.976504 -0.8282871 1.3680999 1.3836064 -0.6735012 1.2678888 1.5210625 1.2804759
1.3550187 -0.106327854 1.4080049 -0.81066775 -0.85076904 -0.7709966 1.6821678 -0.17233588
1.2656744 -0.07639138 1.6577727 1.6919373 -0.5184745 -0.41668716 -0.7461693 1.0568377
0.9589739 -0.5686626 -0.33000037 1.3305575 -0.05711231 1.2684065 1.0396676 -0.3525844
1.2341034 1.6095809 -0.72851694 0.64470685 -0.09987363 1.7233022 -0.7610437 -0.4793306
1.7197514 0.21566889 1.2233782 1.2548416 1.0627074 0.6282534 1.555434 1.2163837
-0.8804409 -0.7590888 -0.60165197 1.4154568 -0.3850242 1.6535376 0.3364184 0.34173846
1.5912592 1.4655336 1.5904453 1.5173649 1.1749178 -0.40366143 1.1946595 1.6174542
0.93394476 -0.9313106 1.4313247 1.6972067 0.47931308 -0.7469699 -0.75148046 1.3182402
1.1768761 -0.81641 1.3020525 1.3908374 1.6424963 1.599702 1.1195211 -0.30106258
-0.45181155 1.662607 1.4817435 1.4619794 -0.25778756 1.6700873 1.6456712 1.6281773
-0.4217925 -0.36097088 -0.2952094 1.6369793 0.20500621 -0.54402614 1.476983 -0.43112877
-0.21468042 0.332252 1.2184823 -0.82953924 1.5897118 -0.44235536 1.4052263 1.6535162
1.5523082 1.3256265 1.6612606 1.244485 -0.43123585 1.680194 0.8197861 -0.526971
0.831427 -0.54368764 1.627435 1.1630942 -0.6031688 1.0982713 1.5794045 1.266592
1.3734499 1.2277666 1.3758587 0.9972378 -0.5000479 -0.46534708 -0.79909605 1.3801628

fc2.weight f4 [64, 128]
00000000: 0b68 75bd c707 3abc 3cd4 313c da2d 8abc
00000010: 72d5 85bd 7ae8 793d 921a 78bd eff5 473d
00000020: 3fdc b2bd b16f 0abd debd 033d 8850 77bd
00000030: 2683 4d3d 9c09 8ebd 6c8e bfbd 0b40 23bd
00000040: d04e 1cbc 3dbe 963d 8252 7ebd 47e2 503c
00000050: ed8b f9bc 6c06 9dbc 18fd 263d e61e 9cbd
00000060: e816 fc3a 8a93 983d 739c a5bc eedf 3a3d
00000070: 53da 0fbd e932 463d 304b e0bd d9d5 cebc
00000080: c83f 1fbd a57f 0c3c d99f 303c 924b 743d
00000090: 1204 1abd 2db6 b3bc f0bf 543d 77ea c3bc
000000a0: 8111 813d 8396 6cbd c85f fabc 7d56 ecbc
000000b0: dcca 003d b6be 133d 43ec d7bc abbe c5bd
000000c0: 2963 333d 3298 d83c 3f10 e53c c730 9dbd
000000d0: a901 693d cb89 803d e335 e4b9 9093 b9bd
000000e0: 7059 3b3d c0cf b2bd fc9a 3f3c 3798 1abc
000000f0: 6219 4bbd da1e fc3c c3db d3bd 2cd7 693b
00000100: d7c2 82bd b95e 00bd 41e8 39bc a747 813d
00000110: 7d44 4cbd a86c 063d e2b5 10bd c774 72bd
00000120: e998 cebd fc86 b7bd 37c3 813d 9659 35bd
00000130: 0d4d 90bc e2f5 d53b 0207 143d cd7e 9a3d
00000140: 4ecf 923d bcb6 9dbd 5f36 eebc bf98 88bd
00000150: f7d9 4ebd 66c9 86ba 7687 823d e5f5 bdbd
00000160: 801b 5b3d 7bb4 3bbd cb7b 29bd 3d59 7c3d
00000170: b14a 35bd e1dc 033c 1f1c a8bd 8eb6 513d
00000180: e533 3bbc 8e37 95bd d4f0 013b ef45 b2bd
00000190: 7297 bbbd 3675 99bc 040e 6f3d c7ab 22bd
000001a0: 0339 9d3c 973d 583d 99cd 243d 734b 8ebd
000001b0: 4c4b 94bc 60c9 38bd c180 c1bd 502d 1938
000001c0: 2327 2e3d 8cee 673d 8abf a7bb 28cc 443c
000001d0: 0eed 40bd a4bf 2f3d eca4 39bd e63a adbd
000001e0: ea03 18bc 6797 f33c 2e19 d2bd aa70 633d
000001f0: 13b7 ff3b 1fa6 7dbd f117 31bd b7b6 5d3d
00000200: 79d8 89bf e48a 36c0 8457 883f 9420 7f3f
00000210: ba4e 07c0 0f43 923f 14a8 7e3f 89f5 0ebf
00000220: cf0f 7e3f a3e6 1ac0 c976 813f c649 0cc0
00000230: ae5f 16c0 6205 3dc0 fc3e 893f 1a0e a8bf
00000240: cb68 883f 5867 90bf 794a 853f 3612 7a3f
00000250: 3aa3 c8bf bcdb 683c bdf1 05c0 270e 25bf
00000260: 3d94 88bf 0239 03c0 be43 e6bf 0456 883f
00000270: 3cfa 573f fb72 833f 6cce 68bf 6730 14c0
00000280: 0f94 763f c3bb 833f f35a 0cc0 85d4 683f
00000290: 444c cabf 9120 883f e056 0bc0 20b7 51bd
000002a0: 0964 7d3f 5cf2 d03f 743b 7b3f a093 753f
000002b0: 0d6f 4fbf fdb0 c6bf 364f 8a3f d1b7 733f
000002c0: 3c31 57c0 f6ea 4bc0 f920 a2bf f01c 8d3f
000002d0: f8b4 bb3d 3a60 8b3f aa89 86bf 6099 ac3f
000002e0: bb03 7b3f 869b 883f 3db4 743f 1337 8d3f
000002f0: 7936 e73e 6e4f 03c0 b30e 8a3f d442 893f
00000300: bd57 51bf 08c8 51c0 6a75 883f f0dc 8c3f
00000310: c470 91bf 1432 3bc0 89b1 f4bf f073 8b3f
00000320: 6f5e 6a3f 452a 25c0 469b 923f 534f 903f
00000330: f0bf 933f 07cd 883f f8b0 4bbf bf81 74bf
00000340: 8e48 853b 2c5b 8a3f 61bc 733f 8740 943f
00000350: 3e07 fcbf d80b 853f 54c1 8d3f d0ef 7f3f
00000360: 65bd b93a 3f64 0ac0 3d0a 78bf 00b5 503f
00000370: 63a2 67bf 5e31 33c0 6196 8a3f 07b7 d1bf
00000380: 2d70 05c0 a04d a23f d44e 063f 4049 2cc0
00000390: 1f4c 8d3f 65d5 95bf 29e0 7f3f d9ae 883f
000003a0: 1324 733f 0a8b 703f 38bb 863f d087 8d3f
000003b0: 0cf6 cebf ab87 8f3f 0b2b 323f 70cd e6bf
000003c0: bbec 6dbf 4434 2ac0 9fcd 7b3f 252a 2c3f
000003d0: f1d0 f0bf 8c23 2ebf c550 813f 82de 7d3f
000003e0: ee97 803f b1d5 923f 2eed 873f 2fc7 46bf
000003f0: 9784 95bf f08f 273f 4d25 3cc0 86c7 8f3f
-0.059913676 -0.011354393 0.010853823 -0.016867567 -0.06534852 0.061012723 -0.060572214 0.048818525
-0.08733415 -0.033797923 0.032163493 -0.060379535 0.0501739 -0.069354266 -0.09353337 -0.039855998
-0.009540275 0.07360504 -0.062090404 0.012749261 -0.03046223 -0.019168101 0.040768713 -0.07623081
0.0019232901 0.07450016 -0.020216202 0.045623712 -0.03512032 0.048388395 -0.10951841 -0.025248455
-0.038879186 0.008575355 0.010780298 0.059642382 -0.037601538 -0.021937454 0.05194086 -0.023915512
0.06302167 -0.057760727 -0.03056325 -0.028849835 0.03144346 0.036070548 -0.026357776 -0.09655508
0.04379574 0.02643976 0.027961848 -0.07675319 0.05688635 0.06276282 -0.00043527698 -0.090613484
0.04573959 -0.087310314 0.011694666 -0.009435705 -0.049584754 0.03077643 -0.103446506 0.003568123
-0.06384819 -0.031340335 -0.011346878 0.06312495 -0.049870003 0.032818466 -0.035329707 -0.0591934
-0.10087759 -0.08961293 0.063360624 -0.04427489 -0.017614866 0.0065295557 0.036139496 0.075437166
0.071684465 -0.077008694 -0.02907866 -0.06669759 -0.050500836 -0.001028341 0.063734934 -0.09275416
0.053493023 -0.045826416 -0.041377824 0.06160854 -0.044260684 0.008048267 -0.08208489 0.05119949
-0.011425947 -0.07285987 0.0019827383 -0.08704745 -0.09159745 -0.018732648 0.058362976 -0.0397146
0.019192224 0.05279311 0.040235136 -0.069479845 -0.01810231 -0.04511392 -0.09448386 3.6520243e-05
0.042517792 0.05662398 -0.005119269 0.012011565 -0.047101073 0.042907372 -0.045323297 -0.084584996
-0.009278277 0.02973528 -0.10258709 0.055527367 0.0078038066 -0.061926004 -0.043235723 0.05412933
-1.0769187 -2.8522272 1.0651708 0.99659085 -2.11418 1.1426715 0.99475217 -0.55843407
0.9924287 -2.420327 1.0114375 -2.1920028 -2.3495898 -2.9534535 1.0722346 -1.3129303
1.065698 -1.1281538 1.0413352 0.9768404 -1.5674813 0.014212545 -2.0928795 -0.6447472
-1.0670239 -2.0503545 -1.7989423 1.065125 0.843662 1.0269464 -0.90939975 -2.3154542
0.9631967 1.0291675 -2.193051 0.9094928 -1.5804524 1.0634938 -2.1771774 -0.051200032
0.98980767 1.6323962 0.98137593 0.9592838 -0.81028825 -1.5522763 1.0805423 0.95202357
-3.36238 -3.1862159 -1.2666312 1.1024456 0.091653764 1.0888741 -1.0510762 1.3484306
0.9805257 1.0672462 0.9558752 1.1032432 0.45158747 -2.051723 1.0785736 1.0723519
-0.81774503 -3.277834 1.0660832 1.1004925 -1.1362538 -2.9249315 -1.911668 1.0894756
0.91550344 -2.580705 1.1453636 1.1274208 1.154295 1.0687569 -0.7956691 -0.95510477
0.004067487 1.0809073 0.9520932 1.1582192 -1.968971 1.039424 1.1074624 0.999753
0.0014170824 -2.1623685 -0.9689062 0.81526184 -0.9048216 -2.7998881 1.0827142 -1.638398
-2.0849717 1.2679939 0.5246403 -2.6919708 1.1038855 -1.1705748 0.99951416 1.0678359
0.9497692 0.93962157 1.0525885 1.1057072 -1.6168838 1.1213278 0.6959693 -1.8031445
-0.9293935 -2.65944 0.9836063 0.6725181 -1.8813764 -0.6802299 1.0102774 0.99167645
1.0046365 1.1471463 1.0619256 -0.7764768 -1.1681088 0.65454006 -2.9397767 1.1232765

fc2.bias f4 [64]
00000000: 56ee 31bb bc14 973f 8f32 273d b312 30bd
00000010: ea34 50bd c048 9a3b 69cd 853f 526a c7bc
00000020: e70e 803c 064f 6fbd c3a6 8a3f 9f2c 3bbe
00000030: bfd8 913d 8aba 94bd 78d4 693d 9620 913f
00000040: b5c6 823f 0500 903f 8ccb 893f 2b0f 953f
00000050: 38e8 803f 1bfe 66bd 3be9 4dbd e0b8 c13e
00000060: 0c92 813f 4f22 833f 41b1 8dbd a25f 973d
00000070: 5ceb 133d fce0 553d 9fe3 683f 1b47 7e3f
00000080: 9168 a73e 822f f4bb c397 913f 7714 28bd
00000090: 169d 73bc c199 223d fb94 8a3f 402b 96bd
000000a0: 5541 813f 3974 6d3f e2f6 443c 58a5 a23d
000000b0: 4ab9 8c3f 0f5a 2c3d 5d6e 183c bd41 2dbd
000000c0: 0f69 cbbe 9140 7c3d 52e7 6a3f 59df 903f
000000d0: 32a7 923f 5653 703e 5ae3 8b3f dc7b ba3f
000000e0: 603b 873f 9c61 693f c5b8 48bd d4f4 733d
000000f0: e0a8 943f 5023 1c3f 5964 683d 8916 12bd
-0.0027150116 1.1803203 0.0408197 -0.042986583 -0.050831713 0.0047083795 1.0453311 -0.02434269
0.015632106 -0.058424972 1.0832142 -0.1827874 0.07121419 -0.07262142 0.05708739 1.133807
1.021689 1.1250006 1.0765243 1.1645254 1.0070868 -0.056394678 -0.050271254 0.3783636
1.0122695 1.0244845 -0.06918574 0.073912874 0.036113128 0.052216515 0.9097232 0.9932725
0.32696965 -0.0074519524 1.1374439 -0.04103514 -0.014868995 0.039697412 1.0826715 -0.07332468
1.0098063 0.92755467 0.012021752 0.07941693 1.0994046 0.042078074 0.009303656 -0.04229902
-0.3972859 0.061585013 0.91759217 1.131816 1.1457274 0.2346929 1.0928757 1.4569049
1.0564995 0.91164565 -0.049004335 0.05955966 1.1614037 0.6099138 0.056736324 -0.035666022

value_layer.weight f4 [1, 64]
00000000: d029 b7bc 592b 3640 4f72 b7bd 2475 97bd
00000010: a26d aebc d417 f5bc 417b 2a40 43f7 b3bc
00000020: 092c c9bd 01c9 adbd 3f4e 3640 292c 3dc0
00000030: 1682 eebd 1c06 d2bd 788a 66bd 8a61 2440
00000040: ef3b 2c40 0399 1d40 f833 3540 2448 3b40
00000050: 24c0 df3f 1b2a bfbd 182b c93d 578a f5bd
00000060: 20f2 ea3f 7ab4 2340 428e 28bc 4c52 5fbd
00000070: 745e d1bc 28ae b0bd 97bc 1c40 a278 3a40
00000080: cbb5 6abe 8093 8dbb fe9e 1240 eaa3 d1bd
00000090: 861d 99bd 46bf cbbd 29c7 2e40 c3e1 d0bd
000000a0: 4dca 3140 eaf9 5b3f c6f3 b5bc 7a57 7cbc
000000b0: e9a7 3640 d0f4 c1bd 4fcf dabd a254 dabc
000000c0: 59cf 09c0 2967 12bd c596 bdbd 418c 2f40
000000d0: 8ee5 3a40 3237 11bf 84a7 3c40 5bec 57be
000000e0: 4b5b 2d40 6034 2f40 2f59 383d 0e97 0dbd
000000f0: 0c5c 3b40 53b0 2cbf 21c0 3ebd c4c1 e1bd
-0.022358805 2.8463957 -0.089573495 -0.0739539 -0.021292511 -0.029918589 2.6637728 -0.02196849
-0.09822852 -0.08485604 2.8485258 -2.9558203 -0.11645906 -0.102550715 -0.056284398 2.5684533
2.691158 2.462464 2.831297 2.926278 1.7480512 -0.09334203 0.098226726 -0.11989277
1.8355141 2.5578904 -0.010287823 -0.054521844 -0.025557734 -0.08626968 2.4490106 2.9136128
-0.22920911 -0.004320562 2.290954 -0.10236342 -0.07476334 -0.09948592 2.7309058 -0.10199311
2.7779725 0.85928214 -0.022210967 -0.015401715 2.8539984 -0.094705224 -0.10684072 -0.026651684
-2.1532805 -0.035742912 -0.09257273 2.7429354 2.920261 -0.56724846 2.9477243 -0.21086256
2.708697 2.7375717 0.045006927 -0.034567885 2.927493 -0.6745655 -0.046569947 -0.11023286

advantage_layer.weight f4 [2, 64]
00000000: bb16 b9bd b9bb e83f f3b6 adbd 04fe 063d
00000010: 070f c83d 49ed e33d 0265 d13f 30dd 413d
00000020: 4c72 e93c 254f 7d3d 9788 cc3f 0812 36c0
00000030: d570 dd3d 14c1 c0bd 1dbd 113e f107 b93f
00000040: caec d53f b74b b63f 0ebe e73f ef26 f03f
00000050: 8896 023e dc65 863d 9811 2dbd 4e53 e2bf
00000060: 8476 843e 2dc5 ba3f 89dc a73d f7e4 e6bd
00000070: 5ec5 303d ee4b 703d bf84 3f3f 86bf db3f
00000080: 860a ddbf 70fb 9f3c 4eb9 893f 609b cc3d
00000090: 5ac5 f5bd b0e5 943d f724 b23f d6ae dd3c
000000a0: af3d d63f c98c 39c0 b404 8bbd 1509 a43a
000000b0: f6d9 d73f 2208 93bd 24bc 5b3d 4828 1bbd
000000c0: a26b ecbf d355 a83d aba5 7bbf c595 e23f
000000d0: a814 ff3f a66a a0bf 2371 e33f 39d1 b83f
000000e0: 9dd2 d13f 3727 f53f c403 4b3d 3571 cb3d
000000f0: 830b f73f 2f53 67c0 73af 0f3d 69a4 653d
00000100: ba0f 8f3d db0b d33f 83c3 e33c 1c5a 44bd
00000110: 033a 6abb b1c9 733d 3d06 a03f c546 06bd
00000120: aa97 a93c d795 2f3b ac3e cc3f f282 12c0
00000130: 47b6 1e3b 50de f6bc c579 d83d f1c8 8b3f
00000140: f67d 9c3f 4f0f 863f ce6c bd3f a722 f73f
00000150: 8438 493f 5757 9c3b ca3c f2bd 56df 45bf
00000160: 2350 763f b801 8e3f afb3 d0bd 4e4f d53c
00000170: f1c5 a73d f787 e73b 966d e93f e076 f13f
00000180: 81c2 65bf 90f8 ff3d 6001 8c3f 2c7c 323d
00000190: 455f 523d 3e77 fdbd c366 c53f ce1c eb3d
000001a0: 9ad3 c13f a400 f53f ffe5 4bbc a9ec c0bd
000001b0: 7812 cc3f 498b 713d be30 733d 7d9a bb3d
000001c0: 917c 51c0 b798 c43d 1ed8 afbf aa05 9e3f
000001d0: 747f b63f e300 ffbf f84d df3f d8e6 78c0
000001e0: c099 cb3f d5ee 753f 1646 12bd d055 643d
000001f0: 4afc b33f 26d6 343f 4c03 b2bd fb72 85bd
-0.090375386 1.8182288 -0.084821604 0.032957092 0.09768491 0.11129243 1.635895 0.04733008
0.028496884 0.061843056 1.5979184 -2.8448505 0.108125366 -0.09411827 0.14232297 1.4455549
1.6712887 1.4241856 1.8104875 1.8761882 0.12752736 0.06562397 -0.042253107 -1.7681673
0.2587167 1.4591423 0.081963606 -0.1127414 0.043156974 0.058666162 0.7481193 1.7167823
-1.7268836 0.019529074 1.0759676 0.09990573 -0.120005324 0.07270372 1.3917531 0.027060907
1.6737574 -2.8992178 -0.067880064 0.0012514914 1.6863391 -0.071792856 0.05364622 -0.037880212
-1.8470347 0.08219495 -0.98299664 1.7701956 1.9928179 -1.2532547 1.7768902 1.443885
1.6392399 1.9152592 0.049564138 0.09933702 1.9300388 -3.6144521 0.03507943 0.056064997
0.069854215 1.6487993 0.027803188 -0.047937497 -0.0035740144 0.05951852 1.2501904 -0.032782335
0.020702202 0.0026792192 1.5956626 -2.2892423 0.0024217532 -0.030135304 0.10570101 1.0920697
1.222594 1.0473422 1.479883 1.930745 0.7860186 0.004771154 -0.11828001 -0.7729391
0.9621603 1.1094275 -0.10190522 0.026038792 0.08192051 0.007065769 1.8236568 1.8864403
-0.89749914 0.124985814 1.093792 0.04357545 0.051360387 -0.12376259 1.5421985 0.114801034
1.5142701 1.914082 -0.012444972 -0.09420139 1.5943136 0.058970723 0.059372656 0.09160326
-3.273228 0.095994405 -1.3737829 1.2345479 1.4257646 -1.9922146 1.7445669 -3.8890896
1.5906296 0.96067554 -0.03571137 0.0557459 1.4061368 0.70639265 -0.08692035 -0.065160714

advantage_layer.bias f4 [2]
00000000: 3e60 983e 39c4 dabd
0.29760927 -0.10681958
