checkpoint.pth (torch, 39149 bytes, 7 tensors)

fc1.weight f4 [128, 4]
00000000: 8836 073f 3144 17bf 7171 81c0 65e0 5dbf
00000010: 72c4 04bf 1095 1c3f 4fd9 4d40 91db 813f
00000020: cc83 61be 3f93 773d 87eb 1bbe 5b92 96bd
00000030: 7f5c 4fbf e72d 20bf c7f9 adbe e5b0 55bc
00000040: c601 583f ce7a fcbe 083e 5fc0 6593 8ebf
00000050: 2e11 8dbd ec78 c83e 0f13 e93d b653 db3e
00000060: 1ff7 92be 69b6 ba3e 9139 f73e cbf2 42bf
00000070: bbc2 6dbf 347e 8b3f db6e 8140 209b a63f
00000080: 8655 05be 14a3 ffbe 6d79 5abf 4ba7 c9be
00000090: 7c34 49bf d056 a63f 4ab0 a33f f125 96be
000000a0: 57f2 d63c ae30 f1be 2b76 adbe 5223 eebe
000000b0: 07b6 a6bf 8c47 833e 39e2 5140 b97c 7f3f
000000c0: 85e0 90bf 8044 b43e 26f9 5740 a5ea 953f
000000d0: c345 373f d98d 53bf 8c1e 4fc0 7d56 9ebf
000000e0: 5e43 d53b cb0a 05bf 7a35 2cbf 9828 90be
000000f0: 7e67 4b3f 825f 463f 3f84 9e3f 658e 303f
00000100: fd5e 283e a869 d2bd 7880 e8bd d0bc da3d
00000110: aec6 993f 0e35 be3e a614 41c0 89e1 93bf
00000120: 77d5 933b 3396 da3e 0efd 3d3f 02fd 013f
00000130: 61b2 81bb a1f6 06bf b879 24be f3d1 acbe
00000140: b498 2abf c2fe 58be d35f 50c0 55a4 d2bf
00000150: 84ab a73d 8876 c6bd 7670 91bd fab2 5dbe
00000160: f6e3 c4be eba0 a73e 1fbf 6440 98e3 653f
00000170: 1b69 be3f c781 aebe fed2 72c0 3143 51bf
00000180: 1e83 b63f daca 9dbe 779d 4bc0 c6ed 21bf
00000190: 3745 0540 ba92 9bbe 9548 30c0 d38e 35bf
000001a0: bd3e 2bbf 21ea 82bf 9d74 82c0 b49b a4bf
000001b0: b359 18be f88f e73d 24e9 4ebe 4fe0 8d3e
000001c0: 0e37 3ebf d14d 9f3f 9acc e63f 7317 3fbf
000001d0: 3efd eebe b81f 50bd 7cd6 b43e 08d1 503e
000001e0: b55d 1abf abb0 5c3f 6f95 7340 f67a 923f
000001f0: bb51 62bf a35c 5fbf e9b6 3dc0 4ae2 7bbf
00000200: 36c4 51be 9e3f 38bf 2c18 36bf f851 463d
00000210: 45dd 77bf 13b2 e7be a807 e33e 896f 5f3c
00000220: 17b5 02bf bb33 fc3e 5986 5a40 1ce6 703f
00000230: 83d8 d6be 305e 5c3f 2933 c53f 0ada 00bf
00000240: 484b e7bf ee3c f73e d858 4140 7a68 243f
00000250: d2ff 21be 838b 0ebf aad0 6ebf b368 e3be
00000260: 7873 333e e115 fcbe 49f7 61c0 7d3e a4bf
00000270: 2eb0 9f3e 8a52 c8be f07b d8bd 1c9a 4fbe
00000280: 23e6 2cbe 20f7 98be 7f5d 46bf cd8b d0be
00000290: 99aa 03bf 1d9d 073f 4bbd 3f40 40bc 603f
000002a0: 1f9f 83bf 9844 c0be 4e6a 553f 3e74 abbd
000002b0: bb2d 413f 5fd9 50bf 0984 0dc0 0a9f 393f
000002c0: 6c7d 2d3f 7add 51bf 13c4 7cc0 8b59 90bf
000002d0: 873b 843d f012 503f 29cc 7840 100d 583f
000002e0: f02c b63d 68ce 343d 8722 5abe 689f 73bd
000002f0: 0c3e 21bf 9e44 cf3e d2ed 5c3f 9251 c93e
00000300: 9168 00be 23b5 25bf 735f 7dc0 30fc 9bbf
00000310: 16f9 c7be cc08 05bf c377 6ec0 af74 70bf
00000320: 11e7 003f 1fb9 ab3e a396 51c0 e177 c1bf
00000330: ab13 fbbe bee4 cc3e 0c6c 3a3e 61b5 fc3e
00000340: b605 903f 471b 533f 76b8 e0bb 6108 00bf
00000350: bb2b 03be ca23 36be 6928 fe3c b983 da3d
00000360: 5e8e f7be 0910 95bf edc3 59c0 edca b1bf
00000370: 3cd8 15bf 5344 983f b884 aa3f 6b0c d3be
00000380: 7706 12bf 2cb2 033e 7082 debe e8ca aebd
00000390: bb11 82be 596b 973d 833e 37bd c976 963e
000003a0: 14d7 9bbe 9a70 3b3f c440 133f 3f5e 06bf
000003b0: 229c e63d da93 c8be 6d33 f3be 6bf6 8c3d
000003c0: 9b6e 593d 21ea fa3e 5a57 56be 7417 67be
000003d0: 26ae cbbe 8174 8cbf fbb8 18c0 8f30 92bf
000003e0: c867 85be 701b 0ebf 5628 2dbf 0e00 1d3e
000003f0: 8b13 ad3e 9b8b 9bbe ff7e 21bf 9aa6 4dbe
0.52817583 -0.59088427 -4.045098 -0.86670524 -0.5186225 0.6116495 3.2163885 1.0145131
-0.22022933 0.06044316 -0.15226565 -0.07352134 -0.8100051 -0.6257004 -0.33979627 -0.013042663
0.84377706 -0.49312443 -3.488161 -1.1138731 -0.068880424 0.39154756 0.11380588 0.42837304
-0.28704163 0.36467293 0.48286107 -0.7615172 -0.9287526 1.0897889 4.044782 1.301609
-0.13020906 -0.49929106 -0.8534153 -0.39385447 -0.7859571 1.2995243 1.2788174 -0.29325822
0.026238604 -0.47107452 -0.33879218 -0.46511322 -1.30243 0.25640523 3.2794325 0.99799687
-1.1318518 0.3520851 3.3745818 1.1712233 0.7159082 -0.8263832 -3.2362394 -1.2370144
0.006508275 -0.51969594 -0.672691 -0.2815597 0.7945479 0.77489483 1.2384108 0.68967277
0.16442485 -0.102740586 -0.113526285 0.106805444 1.2013757 0.37149853 -3.0168853 -1.1553203
0.004511531 0.42692718 0.74214256 0.50776684 -0.003958032 -0.52720076 -0.16062057 -0.3375393
-0.66639256 -0.21190932 -3.2558486 -1.64564 0.08187011 -0.09690577 -0.07101528 -0.21650305
-0.3845517 0.32739958 3.574165 0.89800406 1.4875826 -0.34083387 -3.794128 -0.8174315
1.4258764 -0.30818826 -3.181486 -0.6325344 2.0823495 -0.3038538 -2.75443 -0.7092106
-0.66892606 -1.02277 -4.076735 -1.2860017 -0.14877968 0.11306757 -0.20206124 0.27710196
-0.74302757 1.2445623 1.803119 -0.74645156 -0.46677583 -0.0508115 0.3531989 0.20392239
-0.60299236 0.86207074 3.8059957 1.1443775 -0.8840596 -0.8725073 -2.964289 -0.98392165
-0.20485005 -0.7197207 -0.71130633 0.048418015 -0.96822006 -0.45253047 0.4434178 0.013637432
-0.5105757 0.49258217 3.41445 0.9410112 -0.4196206 0.8608122 1.5406238 -0.503327
-1.8069849 0.48288673 3.0210476 0.6422192 -0.15820244 -0.5568163 -0.93287146 -0.44415817
0.17524517 -0.49235442 -3.530718 -1.283157 0.31189102 -0.39125472 -0.10570514 -0.20273632
-0.16884665 -0.2987604 -0.77486414 -0.4073166 -0.51432186 0.5297411 2.9959285 0.87787247
-1.0282935 -0.37552333 0.83365333 -0.08371781 0.75460404 -0.8158168 -2.2111838 0.725083
0.67769504 -0.8197857 -3.9494674 -1.1277326 0.064566664 0.81278896 3.887461 0.8439493
0.0889529 0.044142157 -0.21302234 -0.059478194 -0.629853 0.40482038 0.86300385 0.39320046
-0.12539889 -0.6472952 -3.9589508 -1.2186337 -0.39057225 -0.5196655 -3.7260597 -0.93928045
0.5035258 0.33539674 -3.2748191 -1.5114709 -0.49038443 0.40018266 0.18205279 0.4935713
1.1251743 0.82463497 -0.006857927 -0.50012785 -0.1280965 -0.1778709 0.031025128 0.10669655
-0.48350805 -1.1645519 -3.4025834 -1.3890053 -0.5853307 1.1895851 1.3321753 -0.41220412
-0.57041115 0.12860936 -0.4345889 -0.08534795 -0.25404152 0.07393522 -0.04473735 0.293875
-0.3043753 0.7321869 0.575207 -0.5248756 0.11260249 -0.39175302 -0.47500172 0.06882938
0.053083997 0.4900675 -0.2093176 -0.2256754 -0.39781302 -1.0973054 -2.3862903 -1.1421069
-0.2605574 -0.55510616 -0.6763967 0.15332052 0.33803973 -0.30379948 -0.63084406 -0.20083085

fc1.bias f4 [128]
00000000: 8a75 743f 00af 3bbf 8c43 b43f 9c8e af3f
00000010: eb3b 30bf 2fd2 a83f 2cdf b43f dc65 823f
00000020: 4028 c03f 3ffd d83e 26c5 bb3f 99ce 3cbf
00000030: 9337 3abf 35ef 48bf c7f1 db3f 77e8 693e
00000040: a33a aa3f 87cc babd f00c da3f f4c7 de3f
00000050: dd76 10bf 8ca0 d5be 385c 37bf f40d 713f
00000060: 8196 433f 6bf7 ccbe f9d7 05bf 47a4 b13f
00000070: ea74 6dbd 99a1 a33f ee93 733f b427 e6be
00000080: 216e ab3f 488b c03f 8687 4abf 90bf 1b3f
00000090: f54f 193f 36b0 e03f 2727 57bf d26a f5be
000000a0: a1ca e03f 74d1 36bf 8bb0 9c3f 4258 df3e
000000b0: 76af 873f d768 413f c80a cc3f 8985 a23f
000000c0: 2c84 5cbf ed46 37bf ac5f abbe dd7e bc3f
000000d0: 810d 85bf 4a74 d93f 85b1 11bf 2efe 513e
000000e0: 2f28 d23f b97d c33f dc8f c63f 9f81 c73f
000000f0: ffc0 ab3f 0746 0ebf 96f3 963f 0994 d33f
00000100: 86d3 903f 8a7d 58bf 94ed bc3f 5899 dc3f
00000110: 6853 e4be 3bc7 29bf ecfe 2abf 4839 af3f
00000120: ac5f 8b3f 783c 52bf f774 a93f 4348 a63f
00000130: 775b d83f 1b9a d13f 7598 833f c380 17bf
00000140: d853 e7be 3d47 db3f 5443 c13f e83b bf3f
00000150: 616f 72be 9e84 df3f a4b4 d73f 3b70 d73f
00000160: 30f5 d7be eabb 443d a5af a5be 8026 d93f
00000170: 4241 abbe fdb7 3fbf fd1d c13f ccc0 26bf
00000180: bce9 86be c0ce b23e 90bd c53f 947a 36bf
00000190: 8340 d33f d69a 1ebf 5da4 ab3f fb65 d93f
000001a0: f04e d13f 5dd4 a43f 2040 d73f 5df7 a33f
000001b0: 501b 2cbf 5569 dc3f 50d2 b93f 55dc eebe
000001c0: ed47 6f3f 5d6a d9be c63e d63f 23f6 793f
000001d0: 1ae9 47bf 849c 883f 487a cc3f 4945 9b3f
000001e0: 9392 ad3f 39c3 a23f 04a1 b83f b187 773f
000001f0: 25fd 09bf b6f2 02bf 0bfb 3fbf c9b8 b83f
0.9549185 -0.73313904 1.4083114 1.3715396 -0.6884143 1.3189143 1.4130607 1.0187335
1.5012283 0.4238071 1.466954 -0.73752743 -0.7274105 -0.7849 1.718316 0.22842585
1.3299145 -0.09121042 1.7035198 1.7404771 -0.5643137 -0.4172405 -0.7162509 0.94161916
0.76401526 -0.40032515 -0.52282673 1.3878258 -0.057972826 1.2783691 0.951476 -0.44952166
1.3392984 1.5042505 -0.7911304 0.60839176 0.5988763 1.7553775 -0.84044117 -0.4793306
1.7561837 -0.7141335 1.2241377 0.43622023 1.0600421 0.755506 1.594079 1.2697002
-0.8613918 -0.715926 -0.3347143 1.4726216 -1.0394746 1.6988614 -0.569115 0.20507118
1.6418513 1.5272743 1.5512652 1.5586432 1.3418273 -0.55575603 1.1793087 1.6529552
1.1314552 -0.8456656 1.4760003 1.7234297 -0.44594884 -0.66319627 -0.6679523 1.3689356
1.0888572 -0.8212352 1.323882 1.2990803 1.6902913 1.6375154 1.0280901 -0.5918085
-0.45181155 1.7131115 1.5098672 1.4940157 -0.236753 1.7462347 1.6852002 1.6831125
-0.4217925 0.04803077 -0.3236057 1.6964874 -0.33448225 -0.7489012 1.5087277 -0.65137935
-0.263502 0.34923363 1.5448475 -0.7128079 1.6504062 -0.6195501 1.3409535 1.6984247
1.6352215 1.2877308 1.6816444 1.2809864 -0.67229176 1.7219645 1.4517307 -0.46652475
0.93469125 -0.4246396 1.6737907 0.976412 -0.7809006 1.0672765 1.5974817 1.2130519
1.3560356 1.2715827 1.4424138 0.96691424 -0.5390189 -0.511516 -0.74992436 1.4431392

fc2.weight f4 [64, 128]
00000000: 7da6 7bbd d1b4 75bc 570c 4f3b 2152 a4bb
00000010: dac8 a6bd b6cc 6a3d a57a 9cbd 4b1f 393d
00000020: 6e7c c3bd fb2c aebc a8f9 bb3c 0605 46bd
00000030: 735f 7f3d 6a31 8dbd d1cc cdbd 5b4e 64bd
00000040: 4c5c 56bc 3def 673d 3eb3 8cbd 289e af3b
00000050: 62a6 fcbc 6c06 9dbc 2b86 163d d425 bfbd
00000060: 1a63 7dbc 0f4a 713d c576 aabc ebaf 293d
00000070: 4a4d 14bd 5eba 343d 916c e7bd 9fb6 50bc
00000080: 40f2 2ebd a984 173b a83f dc3b 88b5 303d
00000090: 6037 d1bc 5a89 f1bc 902c 573d 77ea c3bc
000000a0: 975a 553d 64ae 8abd 7fde 9abc 3152 02bd
000000b0: 0e81 fa3c 6ac0 043d ae49 21bd fdf6 cdbd
000000c0: 1e53 523d 3298 d83c 5db4 d83c f9a4 a6bd
000000d0: 60f3 273d 921d 6a3d 5cf2 9339 48ff dbbd
000000e0: 0685 163d 0cbc bdbd 42d8 99bb eaa2 67bc
000000f0: 2ea7 85bd da1e fc3c 07e2 dabd 6251 bfbb
00000100: 7972 85bd b2ea c4bc c0d2 7fbc 8573 4c3d
00000110: bf48 52bd 40cd 333d 709b bebc f1fe 88bd
00000120: 07be d5bd d621 b7bd c75f 733d 8162 47bd
00000130: 9126 b9bc 5ee2 0ebb 82b2 053d cd7e 9a3d
00000140: 4ecf 923d 7727 babd c154 21bd b77e 9fbd
00000150: 24f4 87bd e734 c5bb a766 683d 03fb c7bd
00000160: 801b 5b3d 7bb4 3bbd 41e8 eebc 1222 393d
00000170: 837f 03bd c8a5 833c a3e3 b4bd b436 433d
00000180: 8eb6 dfbc 3101 97bd eff4 6a3c 67be babd
00000190: 67c9 c6bd 62d2 b6bc d984 383d 0ca3 4fbd
000001a0: 0654 6c3c f1bd 473d bffb 043d a5b8 95bd
000001b0: bf0a 0abd c9df 5bbd 6ff6 a8bd 502d 1938
000001c0: 87c9 1f3d 6522 5c3d 0230 8cbc 01af 303c
000001d0: 4064 3ebd a2bb 203d 1f74 7dbd 8fcf b4bd
000001e0: ab4d 5dbc 9ff5 d23c f970 dabd e505 553d
000001f0: 1c7e a43c 1fa6 7dbd 162a 42bd 9c95 4b3d
00000200: 0f22 5fbf 9a52 28c0 57f0 8e3f 2e98 903f
00000210: 0654 d4bf 928f 8f3f f929 863f f90f 70bf
00000220: 2296 863f 6300 883f 5bc5 913f eed4 febf
00000230: 41e2 06c0 09d6 42c0 132f 963f 8728 7dbf
00000240: 27d5 873f a34a 7dbf 1fed 833f bff0 883f
00000250: 357b 79bf fe83 5bba 7ce7 18c0 4f6a 3ebf
00000260: 985d 76bf e5c8 fcbf 3769 09c0 33f9 8b3f
00000270: 6078 1d3f 75b8 863f 9004 8cbf 094a dabf
00000280: 3d23 8c3f 74ee 903f 28e2 3cc0 5f3d 333f
00000290: 63d0 aebf 30b9 953f c451 24c0 20b7 51bd
000002a0: 7a2a 8c3f 4b51 37c0 d41e 8a3f 9fb8 833f
000002b0: 402a 49bf ddfb d8bf 7e6c 923f 0ba8 723f
000002c0: a68f 65c0 86f5 5fc0 ec26 8bbf 737f 903f
000002d0: 6cb0 103f f84b 913f 65ad 1ac0 4ca0 323f
000002e0: 9a69 893f 3208 8a3f d1d2 7d3f 0543 943f
000002f0: 7b3d 2a3f eb69 1ac0 3ac5 8d3f 4e44 933f
00000300: 8718 4abf 1630 3cc0 9b61 8e3f 5217 943f
00000310: 62e3 c5bf 3b47 20c0 5448 c9bf b477 8a3f
00000320: 2410 373f a018 31c0 5cf4 9a3f 2cbf 9b3f
00000330: f9a2 983f a50a 943f 29c1 77bf 7a4f 3abf
00000340: 8e48 853b ac1a 893f 2cbc 893f 0069 953f
00000350: dd12 713f 57f8 893f 4f01 8f3f 2b4b 863f
00000360: 65bd b93a 3720 8c3f df68 71bf f443 603f
00000370: 0679 73bf de2f 56c0 d7f6 863f 7939 cbbf
00000380: ffae 18c0 45cf 5c3f c3fb 67bc d377 12c0
00000390: 5b7f 903f 283a a5bf e158 833f e58d 913f
000003a0: bb6b 733f 8d2b 283f 859a 933f fff5 933f
000003b0: ddaf 0bc0 0505 9b3f d85a 013f 298e 823f
000003c0: 55a1 8cbf cfeb 1fc0 f5d1 873f 44cf 2abf
000003d0: 821e 08c0 4e45 5dbf f1c7 873f d082 8d3f
000003e0: c27f 8b3f ccdc 8d3f ab04 913f c240 7ebf
000003f0: 21c1 99bf ca75 683f 50e5 3ac0 844c 953f
-0.061438072 -0.014996723 0.0031593048 -0.0050146733 -0.08143778 0.057324134 -0.0764058 0.04519586
-0.095452175 -0.021261683 0.022946194 -0.048344634 0.062346887 -0.068941906 -0.10048831 -0.055738788
-0.013083529 0.05662464 -0.06870125 0.00535943 -0.030841056 -0.019168101 0.036749046 -0.09333387
-0.015465522 0.05890852 -0.020808587 0.041427534 -0.03620652 0.044123046 -0.11300004 -0.012738853
-0.042711496 0.0023119843 0.0067214556 0.04314187 -0.0255391 -0.02948444 0.052532732 -0.023915512
0.052088346 -0.067715436 -0.018904923 -0.031816665 0.030579116 0.032410063 -0.039376907 -0.10056875
0.051348798 0.02643976 0.026453191 -0.08136935 0.041003585 0.057157107 0.00028218597 -0.107420504
0.036747955 -0.09264383 -0.0046949694 -0.014137963 -0.065260276 0.03077643 -0.106876425 -0.005838559
-0.065159746 -0.024037693 -0.015614212 0.049914856 -0.051338907 0.043896914 -0.023267478 -0.06689251
-0.104366355 -0.089420006 0.059417512 -0.048677925 -0.022601398 -0.0021802406 0.03264094 0.075437166
0.071684465 -0.090895586 -0.03938747 -0.07787841 -0.06638363 -0.0060182693 0.056738522 -0.097646736
0.053493023 -0.045826416 -0.029163482 0.045198508 -0.032104027 0.016070262 -0.08832481 0.04765959
-0.027308729 -0.07373274 0.014340623 -0.091183476 -0.09706383 -0.022317115 0.04504857 -0.050692603
0.01442433 0.048765127 0.032466646 -0.07310609 -0.033701655 -0.053680215 -0.082501285 3.6520243e-05
0.03901055 0.05374374 -0.017112736 0.010783912 -0.046482325 0.03924144 -0.06187832 -0.08828651
-0.013507287 0.025751887 -0.10666079 0.052007575 0.020079665 -0.061926004 -0.047403418 0.049703225
-0.87161344 -2.6300416 1.1167096 1.1296442 -1.6588142 1.1215689 1.0481559 -0.9377437
1.0514567 1.0625118 1.1388353 -1.9908731 -2.1075594 -3.0443137 1.1733116 -0.98889965
1.0611924 -0.9894201 1.0306739 1.069847 -0.97453624 -0.00083738554 -2.3891287 -0.74380964
-0.9623656 -1.9748808 -2.1470468 1.0935425 0.615118 1.0525042 -1.0938892 -1.7053844
1.0948254 1.132277 -2.9513035 0.7001552 -1.3657345 1.169714 -2.5674906 -0.051200032
1.0950463 -2.8643367 1.0790658 1.0290717 -0.78580093 -1.6951863 1.1439359 0.94787663
-3.5868926 -3.4993606 -1.0871253 1.1288894 0.565192 1.1351309 -2.4168332 0.69775844
1.0735352 1.0783751 0.99149805 1.1582953 0.6650006 -2.4127147 1.1075814 1.150522
-0.78943676 -2.940435 1.1123537 1.1569617 -1.5460017 -2.5043476 -1.5725198 1.081778
0.71509004 -2.767128 1.2105823 1.2167716 1.1924735 1.1565748 -0.96779114 -0.7277752
0.004067487 1.0711265 1.076055 1.1672668 0.9416941 1.0778912 1.1172274 1.049169
0.0014170824 1.0947331 -0.94300646 0.8760369 -0.9510654 -3.3466716 1.054408 -1.5876914
-2.385681 0.8625377 -0.014159146 -2.2885635 1.1288866 -1.2908373 1.0261499 1.1371428
0.9508626 0.65691453 1.1531531 1.1559447 -2.1826088 1.2110907 0.5052924 1.0199634
-1.0986735 -2.4987676 1.0610949 -0.6672251 -2.126862 -0.86433876 1.0607892 1.1055546
1.0898364 1.1083007 1.132955 -0.9931756 -1.2012063 0.9080473 -2.9202461 1.1663976

fc2.bias f4 [64]
00000000: df36 45bc 1c81 9d3f ac7b 293d 98a9 cc3f
00000010: c359 80bd 5894 e9bb 0938 8d3f f290 71bc
00000020: bab7 7a3c ab31 4fbd 8155 923f f7ca 9d3e
00000030: 81a3 623d 2240 b5bd 6b15 4c3f 750a 993f
00000040: ca9d 8a3f ccc8 973f fd23 913f 803a 9d3f
00000050: 88eb 853f e27d 52be 3be9 4dbd 74e4 003f
00000060: 4234 7f3f 7cda 8a3f a224 8bbd 15ee 823d
00000070: e3ab 143d bdfb 543d e78e 7c3f 1679 873f
00000080: cdc7 da3e 822f f4bb 7f34 983f 98e6 26bd
00000090: 45f0 7cbc 4d55 243d f6ae 913f be1c 96bd
000000a0: 81d4 873f 52f3 593f 8bdd 513c 246f 963f
000000b0: e886 943f d7e2 2b3d 2873 5ebe 91a3 4ebe
000000c0: 8790 93be ae59 5e3d 6ebd 3b3f 7a4b 983f
000000d0: 055a 9b3f caa5 5b3e c738 933f 6a7b 9dbc
000000e0: 97f5 8d3f d479 913f e17a 8f3f b5bc 6d3d
000000f0: b229 9d3f 540b 9cbd fe38 6a3d 1051 10bd
-0.012037008 1.2305026 0.04137771 1.5989256 -0.06267121 -0.0071282797 1.1032726 -0.01474403
0.015302593 -0.050584476 1.1432344 0.30818912 0.05533171 -0.08850123 0.7972018 1.1956316
1.0829403 1.1858153 1.1339108 1.2283478 1.0462503 -0.20555833 -0.050271254 0.5034859
0.99689114 1.0847926 -0.067940965 0.06393067 0.036296736 0.05199789 0.9865555 1.0583827
0.4273056 -0.0074519524 1.189102 -0.040747255 -0.015438144 0.04012041 1.1381519 -0.07329701
1.0611726 0.851369 0.012809168 1.1752667 1.160367 0.04196438 -0.21723616 -0.20179583
-0.28821203 0.054284744 0.7333592 1.1898034 1.2136847 0.21449962 1.1501702 -0.019223887
1.1090573 1.1365304 1.1209375 0.058041293 1.2278349 -0.07619348 0.05718326 -0.035233557

value_layer.weight f4 [1, 64]
00000000: 994e debb 7377 3740 358b b8bd c39f 89be
00000010: 7940 c2bc 839f f9bc 7f19 2340 72ad cbbc
00000020: 2e7a c8bd e81c ccbd 0194 2f40 40be a1be
00000030: 0b73 cfbd cf80 b1bd 1907 4140 7a21 1a40
00000040: 550c 2440 13ce 1040 597d 3040 d754 3a40
00000050: 7d19 f53f f562 50c0 182b c93d 21e1 0ebd
00000060: 02fc f33f c570 1040 1446 00bd 3aad 24bd
00000070: 89aa d5bc 3989 b0bd 0483 1540 3be7 3740
00000080: afe1 e9bd 8093 8dbb 818b 0b40 b250 d2bd
00000090: fdf8 98bd fadf cebd b7f5 2840 76dd d0bd
000000a0: 408d 2640 dfa6 8f3e cab8 b9bc e323 d63f
000000b0: aa66 3140 33e8 c1bd 9d18 22c0 11ea fdbf
000000c0: cfbe 88c0 193d 50bd 72f3 56be d797 2640
000000d0: b340 3340 ccbf 20bf ee08 3840 0272 8cbd
000000e0: 8d99 2940 d83e 2040 2d63 3840 e791 13bd
000000f0: f082 3340 7378 d3bd a03c 40bd 041a e2bd
-0.006784272 2.8666656 -0.09010927 -0.268797 -0.023712384 -0.030471569 2.5484312 -0.024862979
-0.09788929 -0.09966451 2.7434084 -0.31590462 -0.101293646 -0.086671464 3.0160582 2.4082932
2.5632527 2.2625778 2.7576506 2.9114282 1.9148403 -3.2560399 0.098226726 -0.03488267
1.9061282 2.256883 -0.03131683 -0.040204264 -0.026082294 -0.08619923 2.3361216 2.8734882
-0.11419999 -0.004320562 2.1803896 -0.10269298 -0.07469366 -0.10101314 2.6399972 -0.1019849
2.6023712 0.28057 -0.022671122 1.6729702 2.771891 -0.094681166 -2.5327523 -1.9837056
-4.273292 -0.050839517 -0.20991305 2.6030176 2.800824 -0.6279266 2.875545 -0.06857683
2.649997 2.5038357 2.8810532 -0.036027815 2.8048668 -0.10325708 -0.046932817 -0.11040118

advantage_layer.weight f4 [2, 64]
00000000: c88e 98bd 8bbb d93f 9260 a0bd 0a16 d13f
00000010: 3d7c d13d f3fa ce3d 2a0e b13f 0923 2f3d
00000020: f57c 433c 9fbd a03d f1e1 aa3f 1b0e c7bf
00000030: 5c0c af3d b83b a0bd dd23 0640 ea6f 953f
00000040: 9f04 b83f 997d 8e3f ca1d ce3f 1bec de3f
00000050: 0b6f cbbc ebdc 22c0 9811 2dbd 531d e3bf
00000060: 25da 6abc 45ea 863f a0d0 ac3d 9439 cbbd
00000070: e62c 323d 5d76 6f3d 1d1b c23e 6521 c13f
00000080: f45e f3bf 70fb 9f3c 555d 3a3f 86fd d53d
00000090: 2ab1 fabd e0b4 923d 07c7 8c3f 4688 b93c
000000a0: be0f a73f 9394 68c0 e257 95bd 886f 903f
000000b0: f8f8 ba3f e595 91bd 8f0c 27c0 791d 7fc0
000000c0: 6468 37c0 1d10 593d 49bc 78bf 9e63 c63f
000000d0: be65 e83f ecc6 a4bf 8d1c c53f 3b0d b73d
000000e0: 4fd6 b13f 7acb d13f 2bc1 e13f e8fb c83d
000000f0: 253f df3f 3d7c c93d cf32 0e3d bbfc 543d
00000100: c6f7 543d 5755 e03f 919e af3c f6e6 8cc0
00000110: c34e 8abc 94fd 843d 9d18 983f f100 1dbd
00000120: ef0b 1b3d c2dd 3f3a 0b72 c63f 7c64 b9bf
00000130: eda1 c43c 3f9b 69bc 6255 1e40 b67e 6f3f
00000140: 3cce 8e3f 5716 563f 6515 bb3f 1b21 ff3f
00000150: 5873 8a3f 1f4f 28c0 ca3c f2bd 180d 47bf
00000160: 3821 963f ecdd 423f 1b6e 8ebd 5301 1a3d
00000170: 9d9f a63d 8a50 f13b 5288 e93f f432 fb3f
00000180: 15b5 37bf 90f8 ff3d 2b97 8a3f eb84 1c3d
00000190: ec2a 593d 2227 fcbd d5ef c53f 4310 f43d
000001a0: 8ed6 b73f cbd9 c13f 0951 e3bb ecfb 1cbf
000001b0: 2b7e c93f b4a9 6c3d 27da f3bf bc46 85bf
000001c0: 71b2 90c0 7a5c d63d be4b ddbf 5bb6 883f
000001d0: c7a9 a73f 90ad 0ac0 593d e33f bc3f 86bc
000001e0: 2e51 d13f 383c 443f ba50 d03f 2cbb 633d
000001f0: 21e1 a33f 8f6b b53d 7e50 b3bd b875 7cbd
-0.07449108 1.7010359 -0.07830919 1.6334851 0.10228775 0.101064585 1.3832448 0.04275802
0.011931648 0.07848667 1.3350202 -1.555118 0.08547279 -0.078238904 2.095939 1.1674778
1.437641 1.1132079 1.6102841 1.7415804 -0.024833223 -2.5447338 -0.042253107 -1.7743324
-0.014334236 1.0540243 0.084382296 -0.099230915 0.04349985 0.05846249 0.3791131 1.5088316
-1.9013352 0.019529074 0.72798663 0.104487464 -0.122408226 0.071634054 1.0998238 0.022647988
1.3051679 -3.6340683 -0.07292153 1.1284037 1.4607229 -0.07108668 -2.6101415 -3.9861739
-2.8657465 0.052993882 -0.971623 1.5499151 1.8156049 -1.2873206 1.5399338 0.089380704
1.3893527 1.6390221 1.7637075 0.09813672 1.7441145 0.0983815 0.034716424 0.051998835
0.051994108 1.7526044 0.021437915 -4.4031935 -0.01688326 0.06493679 1.1882511 -0.038330976
0.037853178 0.0007319116 1.5503553 -1.448379 0.024002993 -0.014258205 2.4739614 0.9355272
1.1156688 0.8362784 1.4615904 1.9931978 1.081645 -2.6298292 -0.11828001 -0.77754354
1.1728888 0.76119876 -0.06954595 0.03759892 0.081359126 0.0073643373 1.8244727 1.9624925
-0.71760684 0.124985814 1.0827383 0.038212698 0.05301945 -0.123121515 1.5463816 0.11917164
1.4362352 1.514459 -0.0069371504 -0.613219 1.5741628 0.05777903 -1.905095 -1.0412211
-4.5217824 0.10466857 -1.728874 1.068065 1.3098687 -2.1668434 1.7753097 -0.016387813
1.6352899 0.76654387 1.6274636 0.055598423 1.2803079 0.08858406 -0.08755587 -0.061635703

advantage_layer.bias f4 [2]
00000000: d93e 873e ac3e 96bd
0.26415136 -0.073361725
