checkpoint_mc.pth (torch, 38343 bytes, 6 tensors)

fc1.weight f4 [128, 4]
000000 ea 81 87 bc 69 56 8d 3e 36 57 fd be 09 10 dd be
       -0.01654144 0.27604988 -0.494806 -0.43176296
000010 86 b1 30 be d6 34 e8 3d f0 13 86 3d f7 3d e8 3e
       -0.1725522 0.11338203 0.065467715 0.45359775
000020 e0 5b 34 bd fc 62 ed 3d 43 e3 89 be bd 05 33 be
       -0.04403293 0.115911454 -0.269312 -0.17482658
000030 2d 52 f2 be 7e fb ae be 02 e3 84 be e4 e4 56 ba
       -0.4732832 -0.34176248 -0.25954443 -0.00081975595
000040 67 b2 3c 3e 2d a3 8e 3e 16 17 c6 be cd 36 6a be
       0.1842743 0.27858868 -0.38689488 -0.22872467
000050 91 d7 3d 3e 85 05 dc 3e 39 77 4a bc 85 4f d8 3e
       0.18539263 0.4297296 -0.012357526 0.4224817
000060 fe 07 d7 bd 9a ad 22 3c 81 6c ba 3e 0c 81 fa be
       -0.10499571 0.009929085 0.36410907 -0.4892658
000070 ce 7a a4 be 4a ee da bd 6e e1 de bd 21 ea f6 3e
       -0.32124943 -0.10689981 -0.10882841 0.482255
000080 45 2d 9b be 2a af 64 be 85 a7 e5 be bd 83 0a bf
       -0.30307975 -0.22332445 -0.4485437 -0.54107267
000090 1a 9f 83 be 15 f6 eb 3e ab 1c 9a 3e d6 31 90 3e
       -0.25707322 0.46086183 0.30099997 0.28163022
0000a0 ec 0b 29 3d 52 e7 83 be 27 73 bf bc f1 2c 09 bf
       0.041271135 -0.2576242 -0.023370339 -0.535842
0000b0 62 86 b7 be ae 0b 92 be ca 25 ba 3e 1f af ae 3e
       -0.35844713 -0.28524536 0.36356956 0.34117982
0000c0 2f 60 6d be 5e 8c 19 bd c8 d1 cc 3e 5b 94 09 3f
       -0.23181222 -0.03748738 0.400038 0.53742
0000d0 a1 c1 56 3e 4a bf 90 3d c3 57 92 3e f9 63 a1 be
       0.20972301 0.070677355 0.28582582 -0.31521586
0000e0 67 35 e3 3d 76 13 c3 be fb cb ea be 01 cf ab be
       0.1109417 -0.38100785 -0.4585875 -0.3355637
0000f0 ab e6 73 3e f0 c0 5f 3e 68 00 81 be 56 2e 21 3e
       0.23818462 0.21850944 -0.25195622 0.15740332
000100 2a 7d 91 3e 6f 45 96 bc a0 ed df 3d 33 4e 19 3e
       0.28415805 -0.018343655 0.10933995 0.14971237
000110 c5 47 9f 3e 91 ad f6 3e a5 8a e7 be 3a ed 68 be
       0.31109443 0.48179296 -0.45222965 -0.22746745
000120 47 e2 34 3e f2 94 d3 3e f4 37 0c 3f 2b 20 03 3f
       0.17664443 0.41324574 0.5477288 0.5122096
000130 11 70 e6 3d cf ee e0 be 07 a8 8f bd c1 5e c5 be
       0.11251844 -0.43932196 -0.070144705 -0.38548854
000140 79 d2 f2 be 1c a4 e4 3e 83 6d a1 3e a7 0f 09 bf
       -0.47426203 0.44656456 0.31528863 -0.5353951
000150 3f 77 c0 3d c2 cb ab bd 94 6e a8 bd 8b 7c 6a be
       0.093977444 -0.08388473 -0.08224216 -0.22899072
000160 7e e9 4d 3e b7 a0 9b be 4f 35 45 3e b8 9a 86 3e
       0.20108601 -0.30396053 0.19258617 0.26289916
000170 b8 19 b4 3e 56 b2 37 3e dc 8b 18 bf 04 8f c4 be
       0.35175872 0.17939124 -0.5958841 -0.38390362
000180 14 b1 83 3e 08 43 ee 3d 21 95 f5 be 05 7e b2 be
       0.25721037 0.11633879 -0.4796534 -0.3486177
000190 ac 15 f0 3e ac 98 a8 3e b5 a0 7a be d7 ef 08 be
       0.46891534 0.3292898 -0.24475367 -0.13372742
0001a0 ef f5 f7 be 70 b4 8a 3c 62 f3 db be 92 e7 e3 be
       -0.4842982 0.016931742 -0.42959124 -0.44512612
0001b0 5b 01 05 bd 42 63 ca 3d 18 16 c4 bd 15 89 b7 3e
       -0.032471996 0.09882213 -0.095745265 0.35846773
0001c0 02 13 a4 be ed a1 eb 3e 19 fb 90 3e 90 e0 eb be
       -0.32045752 0.46021977 0.28316572 -0.46069765
0001d0 33 e4 f2 bd 58 49 53 3d aa 86 43 3e da 3f 35 3e
       -0.11859932 0.051583618 0.19094339 0.17700139
0001e0 31 17 4c 3e e3 2b 9f 3c ac 14 46 be 6c 2a 8a 3e
       0.19930722 0.019430107 -0.19343823 0.2698549
0001f0 a9 b1 ff be 47 c4 9f be 52 45 25 be 03 1c 8d be
       -0.4994023 -0.31204435 -0.16139725 -0.27560434
000200 6f fb 1f be 2e fb d5 be c6 a4 42 be b5 f2 80 3d
       -0.15623258 -0.41793197 -0.19008169 0.06296293
000210 2d 15 a1 be d1 ac 07 bd 11 c8 86 3e f9 ae e4 bd
       -0.31461468 -0.033123795 0.26324514 -0.11166186
000220 3f ee 4b 3c 84 14 93 bd 92 83 15 3e 64 d4 bb 3e
       0.012446939 -0.071816474 0.14600971 0.3668548
000230 83 89 f6 3e 34 47 a0 3e a6 c6 d7 3e f2 26 a5 bd
       0.48151788 0.31304324 0.42143744 -0.08064069
000240 16 f9 ec be f6 d8 77 be cf d3 95 3e 89 44 0b bd
       -0.46283787 -0.24203858 0.2926316 -0.034000907
000250 9c 23 64 be cf 79 bf be a6 2b 15 bf c2 55 00 bf
       -0.22279209 -0.3739762 -0.5826973 -0.50130856
000260 80 e6 ec bd f2 25 92 3e d7 82 5f 3e 78 80 04 bf
       -0.11567402 0.28544575 0.21827255 -0.5175853
000270 78 00 97 3e f4 bb cb be 59 6c c6 bd 2d 1f 4b be
       0.29492545 -0.39791834 -0.096886344 -0.19836111
000280 ad aa c8 bd b9 16 ea bd 58 ac 0d bf 8e 77 fe be
       -0.09798179 -0.11430115 -0.553411 -0.49700588
000290 dd 91 a1 bd 72 7b 3f 3b 29 19 6a be 6f 9e 43 3e
       -0.07889149 0.0029217866 -0.2286116 0.19103406
0002a0 e1 a3 e7 be 06 f5 3c bd 28 e7 c7 3e 92 4a 68 be
       -0.45242217 -0.04613211 0.39043546 -0.22684696
0002b0 c3 f0 ee 3e d6 c5 5b 3e 70 15 cd be d6 a8 9d 3e
       0.46668062 0.21462187 -0.40055418 0.30792874
0002c0 6d c5 9b bd 55 77 6b be 0c f4 af 3e 26 17 e1 be
       -0.07606015 -0.2299474 0.3436588 -0.43962973
0002d0 2d 70 16 3d 18 75 e7 bd d4 0f ec 3e 23 7d 44 3e
       0.036728073 -0.11301631 0.46105826 0.19188361
0002e0 05 e1 76 3e a5 77 24 3e 25 ac 67 be 0b 51 31 be
       0.24109276 0.16061266 -0.22624262 -0.17316072
0002f0 ea de ce be 47 db 92 3e 77 df fa 3e 92 58 ca 3e
       -0.40404445 0.2868292 0.48998615 0.395207
000300 ff de b9 be 07 d1 32 3d 33 03 b8 be 67 15 98 be
       -0.36302945 0.043656375 -0.3593994 -0.2970383
000310 0f 88 a6 be 69 1e 38 3e 96 21 a0 be 4b b1 17 bd
       -0.3252568 0.1798035 -0.31275624 -0.037034314
000320 25 84 5c 39 d3 35 a6 3e fa ca e9 be a1 aa c9 be
       0.00021030063 0.3246294 -0.4566267 -0.39387992
000330 85 34 86 be ae b9 c3 3e e6 b7 da bd 55 2f e5 3e
       -0.26211944 0.382276 -0.10679607 0.44762674
000340 f5 05 2e 3e f7 f3 63 3d 36 ad c0 3b 3d fd dc bd
       0.1699446 0.055652585 0.0058800234 -0.10790489
000350 33 5d a6 3d d7 57 b4 bd ee 23 be 3d 8e dd dc 3d
       0.08123245 -0.088058166 0.09284197 0.10784446
000360 fa c5 ce be cc 40 88 be 92 a8 ad 3e 20 c0 e1 be
       -0.4038542 -0.26611936 0.3391767 -0.44091892
000370 1f b5 e4 bb b2 fc fe 3e 4d 15 54 3e 97 31 a1 3c
       -0.006979599 0.49802166 0.2071125 0.019676967
000380 f7 b1 e0 be 45 2d 5c 3e 64 74 ec be d7 8f 48 be
       -0.43885776 0.21501644 -0.4618255 -0.1958612
000390 56 de 1c be 6d f1 ff bc 8c 7f ea 3d 72 2b f0 3e
       -0.1531919 -0.03124305 0.11450109 0.46908146
0003a0 57 f6 6e 3d dd 33 eb 3e 1f ef d2 3e fd 02 86 be
       0.058340397 0.45938006 0.4119806 -0.26174155
0003b0 d5 e1 52 3e a5 f8 b1 be bb 6b eb bd 25 c6 55 3e
       0.2059396 -0.34760013 -0.11495157 0.20876367
0003c0 5d 5b 23 3e 6c 72 b8 3e a5 ea 67 be e1 8e 11 bd
       0.15952821 0.36024797 -0.22648104 -0.03553665
0003d0 3e 43 8a 3e 80 27 f1 be 18 cb c6 3e 23 7f cc be
       0.27004427 -0.4710045 0.38826823 -0.39940748
0003e0 4d 76 69 3c 2c 33 df bd 0a 90 ab be 6a e3 57 3d
       0.0142493965 -0.10898432 -0.3350833 0.052707113
0003f0 3a 30 c8 3e f8 cc 49 be a1 a5 c4 be d2 d6 5e be
       0.39099294 -0.19707096 -0.38407615 -0.21761635

fc1.bias f4 [128]
000000 74 da bd bd 4d 2b 11 be d4 3d 0b 3e 3a 3e 4b 3e
       -0.09270182 -0.14176674 0.13597804 0.19847956
000010 0d 28 83 be fd c7 a9 3d b6 c5 8e 3e 9a d7 c0 bc
       -0.25616494 0.08290098 0.27885216 -0.023540307
000020 7e ce 49 3e 7e d0 81 bd d1 f8 50 3e 1e cc a6 be
       0.19707677 -0.06338595 0.20407416 -0.32577604
000030 6d d2 82 be f9 bb 81 be 71 8d ec 3e 5e 11 02 be
       -0.25551167 -0.25338724 0.4620166 -0.12701938
000040 8a c2 79 3c f9 ee 6f be 06 d5 03 3f b0 a7 ff 3e
       0.015244136 -0.23431005 0.5149692 0.49932623
000050 ab c8 bb be 35 85 cf be 6d 4e be be 17 6b 01 3d
       -0.36676535 -0.40531316 -0.3716921 0.03159627
000060 d1 5c b8 bd 85 bc a9 be 53 65 10 be 48 59 f3 3d
       -0.09002078 -0.3315164 -0.14101152 0.118822634
000070 69 95 7c be 21 e3 e1 3d 11 17 b5 bd ea 55 59 be
       -0.2466637 0.110296495 -0.0884229 -0.2122418
000080 11 1d 7f 3d 9c f9 ce 3e 8a 25 95 be e9 9a d8 3c
       0.06228358 0.40424812 -0.29130203 0.026441054
000090 59 20 2e be d0 6c ff 3e 6b 39 e8 be 4f 27 f6 be
       -0.17004527 0.49887705 -0.45356306 -0.48076865
0000a0 e1 f8 f7 3e 3b 11 a1 be 82 a2 f5 3d 9e 3a 4d bd
       0.48432067 -0.31458458 0.119938865 -0.05010473
0000b0 cd 3c 9b bd bb 60 47 bd d0 28 a7 3e bb ad d6 3d
       -0.07579956 -0.048676234 0.32648325 0.10482355
0000c0 0c 24 ee be a1 85 82 be 81 d9 11 be 86 e3 8a 3e
       -0.46511877 -0.25492576 -0.14243127 0.27126712
0000d0 3a 92 a9 be 39 97 f4 3e 8f 5b b8 bd 99 cc 95 bd
       -0.33119375 0.47771624 -0.090018384 -0.073144145
0000e0 49 dc c5 3e 7d b1 7e 3e a7 d8 d9 3e 4a 00 87 3e
       0.38644627 0.24872394 0.42548105 0.26367408
0000f0 09 6e 29 be 02 22 bb be 13 48 58 bc 38 0a cc 3e
       -0.16545881 -0.36549383 -0.013200778 0.39851546
000100 20 f4 0c be 0d 35 f9 be 2b da 55 3e ef ee f8 3e
       -0.13765001 -0.48673287 0.20884006 0.48619792
000110 43 9a aa bd ff 85 c8 be de d4 dc be 28 25 08 3e
       -0.08330204 -0.3916473 -0.43131155 0.13295424
000120 c7 7c 89 bc bd 9e 63 be d3 98 bf 3d e6 a8 46 3e
       -0.016783131 -0.22228523 0.09355321 0.19400367
000130 95 0d d1 3e 45 47 cc 3e ec 97 c3 bc 2a e6 e5 be
       0.40830675 0.39898124 -0.023876153 -0.44902164
000140 d8 53 e7 be 39 2d fb 3e 26 5c 7c 3e 0a 8b 86 3e
       -0.45181155 0.4905794 0.24644527 0.26277953
000150 61 fa db be 95 ce eb 3e ea 78 f3 3e bb 6d e9 3e
       -0.4296446 0.46056047 0.47553188 0.4559153
000160 30 f5 d7 be 96 d9 3f be 05 c7 b1 be 58 1b e9 3e
       -0.4217925 -0.18735346 -0.34722152 0.45528674
000170 7d c2 50 be e9 e1 4c be 09 ba 95 3e e9 96 3f be
       -0.20386691 -0.20008053 0.29243496 -0.18709911
000180 77 52 68 be 4b 5a e1 bc 2f 54 0e bd cb 2c c0 be
       -0.22687708 -0.027508875 -0.034748252 -0.37534174
000190 33 5e d8 3e fb 8e 5d be 94 69 4f 3e c9 bb d6 3e
       0.42259368 -0.21636574 0.20255119 0.41940144
0001a0 17 8f 8a 3e d6 8a b1 3d 37 88 d8 3e d5 0f 91 3d
       0.27062294 0.08669059 0.42291424 0.07083098
0001b0 e3 34 44 be c9 2c 01 3f 98 52 f3 3d 26 db f0 be
       -0.191608 0.5045896 0.11880988 -0.47042197
0001c0 b4 60 10 be e2 6a a9 be 36 12 e1 3e fb 6e 6b bd
       -0.1409939 -0.33089358 0.43959206 -0.057478886
0001d0 1f 1c e1 be fc c9 5d 3a d2 09 a8 3e 99 c2 f2 3d
       -0.43966767 0.0008460579 0.32819992 0.11853523
0001e0 17 12 19 3e 74 bf cc 3d a1 b9 3e 3e 6b 11 cd bd
       0.14948307 0.09997454 0.186255 -0.10013088
0001f0 02 29 34 be 69 4e e7 be 8c bb bb be 83 05 6e 3e
       -0.17593768 -0.4517701 -0.36666524 0.2324429

fc2.weight f4 [64, 128]
000000 8f f3 9b bd 24 2c 6a 3d c9 6b f5 3b 9b 8f 38 3c
       -0.076148145 0.057171002 0.0074896556 0.011264707
000010 d9 e7 76 bd 13 d0 1a 3e 70 ac 88 bd dd 47 da 3d
       -0.0602797 0.15118437 -0.06673515 0.10658238
000020 13 13 01 be 18 2e a0 3c 27 d5 8a bb 3c fe aa bc
       -0.12604932 0.01955323 -0.0042368355 -0.020873182
000030 cc d3 eb 3d 3a f8 7a bd 1a 24 d3 bd b4 e9 9b bc
       0.115150064 -0.061271884 -0.1030962 -0.019032337
000040 2a d4 5e 3d 23 f4 ab 3d 7a 3c 77 3c c0 80 34 3c
       0.054401554 0.08396175 0.015090102 0.0110170245
000050 c7 f7 33 bd 6c 06 9d bc 1e b0 cd 3d e2 bf c2 bd
       -0.04393747 -0.019168101 0.10043357 -0.09509255
000060 d2 a1 4b bc 8b 8f bf 3d 1c 62 5e bd 55 1a 03 3e
       -0.012428718 0.093535505 -0.054292783 0.12803014
000070 31 5a 19 bd 6b b4 01 3e 59 48 5d bd 45 3a 09 bd
       -0.03743953 0.1266648 -0.054024074 -0.033502836
000080 4c cd b3 bb 25 72 25 3d c0 b8 9e 3d 35 15 bd 3d
       -0.00548712 0.04039206 0.07750082 0.092325605
000090 be 4b a6 bc ed 28 28 bd 8f dd 3b 3d 49 6a 00 bd
       -0.020299789 -0.041054655 0.04586559 -0.03135136
0000a0 89 36 2e 3d ae 1a 88 bd f2 cb 6d bc 7e 8f 09 3d
       0.042532478 -0.06645714 -0.014513956 0.03358411
0000b0 30 45 82 3b 75 3b f6 3d 07 06 8d bc 14 07 f4 3b
       0.003975533 0.12023059 -0.017214788 0.007447133
0000c0 f8 84 17 3d c5 a4 91 bb 8d 13 ad 3c 7c 3d 01 3b
       0.036992043 -0.004444691 0.021127487 0.0019720485
0000d0 fa 84 6f 3d cf 4d ca 3d c8 98 d1 bc 8d fb 68 bd
       0.058476426 0.09878122 -0.025585547 -0.056880523
0000e0 65 d2 44 3d 62 ac 9a bc aa 48 df 3c 37 29 ae 3c
       0.04805221 -0.018881027 0.027256329 0.021259887
0000f0 81 11 ea bc d0 c4 99 3c 55 67 ce bd c3 cf cd 39
       -0.0285728 0.018770605 -0.10078303 0.00039255442
000100 98 3c ba bd 3c 3d ba ba a7 43 fc 3c 02 b8 83 3d
       -0.090935886 -0.0014208923 0.030793978 0.06431581
000110 e2 d2 b0 bd 61 b7 82 3d 87 c6 c9 3b 16 0c 9d bc
       -0.08633973 0.06382633 0.0061576995 -0.019170802
000120 b6 69 6d bd a0 64 f1 bd 2d d9 80 3d 4f f5 13 bb
       -0.057962142 -0.11786771 0.06291423 -0.0022576635
000130 ba 1e d7 3c 44 4f 23 3c 90 16 d9 3d 69 40 91 3d
       0.026259769 0.009967629 0.106000066 0.070923634
000140 4e cf 92 3d 47 58 12 bd ea 81 96 bd 66 e8 ff bc
       0.071684465 -0.03572872 -0.07348998 -0.031238746
000150 c3 c2 77 bc 03 d0 6c 3d fb 94 01 3e d1 1c 0b bd
       -0.015122118 0.057815563 0.12654488 -0.03396303
000160 80 1b 5b 3d 0c 0c 8e bd 49 1c 0f bc 4c ff 94 3d
       0.053493023 -0.069358915 -0.008734771 0.072752565
000170 50 ae ef bb 8a d7 ae bc 9c cd c8 ba dd ab fa 3d
       -0.007314481 -0.021343011 -0.0015320065 0.122398116
000180 d2 4b c0 3c a2 48 9a bd 55 4b 2e 3d b1 97 3c bd
       0.023473654 -0.07533385 0.04255231 -0.0460431
000190 e4 b0 e7 bc 89 c7 2a 3d 57 18 72 3d b2 db 23 bd
       -0.02828259 0.041694198 0.059105244 -0.04000444
0001a0 9e b4 b7 3d dd a5 d6 3d e4 6c c9 3c a9 18 c1 3a
       0.08969997 0.10480855 0.024588056 0.0014732081
0001b0 75 c1 c4 bc 3d cc 51 bd eb 80 3c bd aa da c1 bc
       -0.024018029 -0.051220167 -0.046021383 -0.023663837
0001c0 01 70 b8 3d 3f ae c6 3d ef 02 0a 3b 4c 1c 70 bc
       0.09005738 0.097012036 0.0021058877 -0.014655184
0001d0 9b ef 2c bd 88 8f e4 3d a8 ed 82 bd ed 79 56 bc
       -0.042220693 0.11160189 -0.063929856 -0.013090593
0001e0 9c 5f 08 3d cb 1f 02 3e a9 54 8a bd da e4 bb 3d
       0.033294305 0.1270744 -0.06754429 0.09174509
0001f0 1c 73 84 3d 0a 23 bc bd cd 8c a2 bb 5e c1 06 3e
       0.06467268 -0.09186371 -0.0049606324 0.13159701
000200 58 ae 84 bc 98 e0 20 bd 18 92 94 3d 08 3c 4f bd
       -0.016196415 -0.03927669 0.07254428 -0.05059436
000210 52 69 98 3d 60 7c aa bb 0c c4 be 3d ef f1 68 bd
       0.07441963 -0.005202815 0.09314737 -0.05687135
000220 6e 1a 25 3e a0 60 ba bd 71 9e 23 3e 7e f3 8f bd
       0.16123363 -0.09100461 0.1597841 -0.07028864
000230 92 96 b2 bd d8 f4 9f 3d f0 cc 82 3d ed 67 fc bb
       -0.08720125 0.07810372 0.06386745 -0.0077028186
000240 67 e7 86 bd da 88 81 bc 91 a4 58 bd 32 7b 20 bd
       -0.06587105 -0.015812326 -0.052891318 -0.03917999
000250 fd 6e 50 3d 94 d8 7b 3c a5 50 24 bc 75 3e 9c 3d
       0.050887097 0.0153714605 -0.010028993 0.076291
000260 e0 44 06 3e 91 7b 09 3d 43 ae f6 3c 30 1b 8e bd
       0.13112211 0.033565108 0.030112391 -0.06938779
000270 59 3b 9f bc 8f 49 b2 bd 60 cf 14 bd 72 8f 34 3c
       -0.019437479 -0.087054364 -0.03633058 0.011020528
000280 80 5a 72 3d 86 db 9b bc 6d d5 6a 3d f1 b6 88 bd
       0.05916834 -0.019025575 0.057332445 -0.06675518
000290 41 c7 b7 3c 3c 15 0e 3e 2b 10 fe 3d f0 cf 35 bd
       0.022433879 0.13875288 0.124054275 -0.044387758
0002a0 f8 d2 94 3d 19 4c 55 3c 61 c5 87 bc b3 b4 5c bd
       0.072668016 0.013018631 -0.01657361 -0.053883266
0002b0 07 af a4 3d fe 8b aa bd b5 64 27 3d 24 21 c1 bc
       0.08041196 -0.08327483 0.040867526 -0.023575373
0002c0 95 b1 7c bc 5b fa e5 3d 5a 9f 16 3d 52 a1 63 3c
       -0.015423198 0.11229392 0.036773063 0.013893442
0002d0 0f e3 b7 3d a7 1c 1f bc 23 fe bc 3d be 5e f2 bc
       0.08978855 -0.009711421 0.0922816 -0.029586192
0002e0 5c 67 cd 3c dc 81 00 bd bb b2 6c 3c ed 27 0c bc
       0.0250737 -0.031373844 0.01444691 -0.008554441
0002f0 c2 6c fb 3c 3d e2 74 3c 4f 4f ce 3d 5c 4d d5 3c
       0.030691508 0.014946518 0.10073721 0.026037864
000300 f5 2c 93 3d 62 94 30 bd a7 66 78 bd 8d 2b 8d 3d
       0.07186309 -0.04311026 -0.060644772 0.06893072
000310 03 bf a9 3d be 38 2b bd ed 2d 72 bc 8e 02 aa 3c
       0.08288386 -0.04180216 -0.014781457 0.020753171
000320 50 22 eb ba 81 f0 df 3d 96 b6 55 3d 23 c7 37 3d
       -0.0017939303 0.10934544 0.05217608 0.044867646
000330 f9 c5 49 3d cb 0e 9f 3c 50 42 c2 3c 46 44 95 3d
       0.049261067 0.019416234 0.02371326 0.07288413
000340 8e 48 85 3b 9a f3 61 3c d9 14 a1 3d da bb 88 3d
       0.004067487 0.013790989 0.078653045 0.06676455
000350 7e 8b 84 bd ea 29 52 bd fb ba d0 3c f9 8b a6 bd
       -0.064719185 -0.051309504 0.025479784 -0.081321664
000360 65 bd b9 3a 51 b8 1e bc 7e a0 ac 3d 68 02 82 bd
       0.0014170824 -0.009687499 0.08429049 -0.06348115
000370 71 ec 97 3d a9 26 ed 3d f7 3c 7f bc c4 22 07 bd
       0.074181445 0.115796395 -0.0155785 -0.03299214
000380 4f 1a 5d 3d d1 86 92 ba 58 10 23 3c 95 21 54 bd
       0.053980168 -0.0011179094 0.009952627 -0.05178984
000390 25 0e b6 bc 48 2f cf 3c 75 ce 3b 3d d2 ed ab 3c
       -0.022223542 0.0252911 0.04585119 0.020987425
0003a0 48 47 da bd e4 e6 de 3b 0a 46 5e 3d c0 85 c1 bb
       -0.10658127 0.0068024267 0.054266013 -0.005905837
0003b0 81 b4 c4 3d d4 64 08 3e fe 25 40 bd 06 0a 9b 3c
       0.09604741 0.13319713 -0.046911232 0.018925678
0003c0 6f 9c bb bc c1 76 e3 bd c4 98 0c bd 2c af 06 3e
       -0.022901742 -0.11106635 -0.034325376 0.1315276
0003d0 d6 10 97 3d c4 ca 03 3d aa ac c7 3d e0 74 b8 bd
       0.07376258 0.032175794 0.0974973 -0.09006667
0003e0 83 53 b6 3c 81 7d b8 3c ac 70 f1 bc 6c d6 ce 3d
       0.022256618 0.022520782 -0.029472671 0.100994915
0003f0 b4 7a c6 3c 9a 56 b3 3d cc 93 3f bd 5e ba 86 3c
       0.024228431 0.08756752 -0.04677181 0.016446289

fc2.bias f4 [64]
000000 e4 cf c7 3c 8f bc bf 3d d8 5f 83 3d b3 12 30 bd
       0.024391122 0.093621366 0.06414765 -0.042986583
000010 44 0d 3e bd 47 81 14 3d 9b 32 57 bd 44 60 0f 3c
       -0.04639937 0.0362561 -0.052538496 0.008750979
000020 16 9d 19 3d af 6d 30 bd 69 a1 56 3d 19 1c 67 bc
       0.037503324 -0.043073352 0.052400026 -0.01410582
000030 fd 17 c8 3d 46 ad a0 bd 86 23 97 3d 0e aa 81 3d
       0.097702004 -0.07845549 0.073798224 0.063312635
000040 4b 7c 62 bd 38 c3 39 3d 43 3b 45 3b f3 5c ed 3c
       -0.055294316 0.04535219 0.0030095137 0.028974986
000050 67 1c ad 3d 90 b6 14 bd 3b e9 4d bd 6f 31 8f bd
       0.08452683 -0.036306918 -0.050271254 -0.069918506
000060 3b 2d a1 3d 7a 26 78 bd 55 7e 8c bd 6e 06 ce 3d
       0.07869955 -0.06058357 -0.068600334 0.1005982
000070 a7 08 1c 3d df 82 94 3d 62 f9 b1 3d 13 ce 4f bd
       0.03809419 0.07251524 0.08690144 -0.050733637
000080 d4 dd 14 bd 82 2f f4 bb 11 15 c6 3d 78 cf b6 bc
       -0.036344364 -0.0074519524 0.09671987 -0.022315726
000090 d3 19 78 3b b1 19 87 3d 36 35 81 3d a8 f4 4f bd
       0.003785719 0.06596697 0.06308977 -0.05077043
0000a0 05 b0 84 bd 74 ba 2e bc fd b9 1a 3d f5 69 c9 3d
       -0.064788856 -0.010664571 0.03777503 0.09834663
0000b0 c2 0a 61 3d 13 8b 81 3d 41 b1 94 3c 82 cb 04 bd
       0.0549419 0.063253544 0.018150927 -0.032420643
0000c0 15 ea 2c 3c 20 43 ac 3d d8 63 cb 3c 25 fd ef 3c
       0.010553856 0.084112406 0.024827883 0.029295513
0000d0 44 61 74 3d d9 9a a9 3d 55 0e 2c 3d c1 24 12 bc
       0.059663072 0.08281488 0.042005856 -0.008919896
0000e0 52 97 09 bd e3 da 04 bd 3f 1b a0 bc a8 65 c6 3d
       -0.033591576 -0.03243531 -0.019544242 0.09687358
0000f0 69 e5 bd 3d 39 dc 04 bd 63 3a 9c 3d ab fd 8a bc
       0.09272272 -0.032436583 0.07628324 -0.016966661

output_layer.weight f4 [2, 64]
000000 46 35 a6 bd 32 14 e1 3d a0 07 12 be 24 75 97 bd
       -0.0811563 0.1099018 -0.14260721 -0.0739539
000010 34 9f 36 bc 89 ca d3 bd d9 91 9a 3d b0 fd bf bd
       -0.011146355 -0.10341365 0.075473495 -0.09374559
000020 22 bc 19 be db 45 cb bd c1 cf 44 3e c6 6e 65 3d
       -0.15013173 -0.09925433 0.19219877 0.056013845
000030 2f a7 3a be 60 13 c6 bd 50 de 69 bd d3 6f 9f 3d
       -0.18227838 -0.09671664 -0.05709678 0.07785001
000040 ef 96 09 3e ec 60 92 bc 02 5f 11 3e bc 87 07 3d
       0.13436483 -0.017868482 0.14196399 0.03308843
000050 0b ed 14 3e df bf 21 bd 18 2b c9 3d 5c d7 52 3d
       0.1454355 -0.039489623 0.098226726 0.051474914
000060 14 69 be 3d 67 4a be 3d e5 c3 b9 bb 57 e8 06 be
       0.09297386 0.09291535 -0.0056691044 -0.13174568
000070 8d 82 1a bd e0 69 0c be 07 61 34 bd 29 42 09 3e
       -0.03772216 -0.13712263 -0.044037845 0.13404144
000080 3b 47 f4 3c 80 93 8d bb 74 aa d7 3d 27 06 1a be
       0.029819122 -0.004320562 0.10530558 -0.1504141
000090 c8 42 13 be bf 4b 0b be e0 44 3e 3e 10 52 20 be
       -0.14380944 -0.13603114 0.18580961 -0.15656304
0000a0 d0 85 99 3b 73 7c 28 3e 6c 80 ca 3c 41 6b f4 3b
       0.004685141 0.16453724 0.02471944 0.0074590747
0000b0 42 4f 2e 3e 29 33 24 be 1a d0 ef bd b3 bb ea bb
       0.17022422 -0.16035141 -0.11709614 -0.007163489
0000c0 e6 ea 66 3d ea 2a a5 bd b3 cd cc bc 68 cf 70 3d
       0.05637636 -0.08064826 -0.025000429 0.058791548
0000d0 29 83 f2 3d 95 d4 ba bc 89 89 10 3e b4 af 6e bd
       0.11841423 -0.022806445 0.14114965 -0.058273032
0000e0 5c ed 17 bd 7e f5 cf 3d d2 9d c6 bc 30 bd ea bd
       -0.037091598 0.10154246 -0.024245176 -0.11461866
0000f0 ee dc 2c 3e a8 96 21 be fd ed be bd 2a 2c 16 be
       0.16881153 -0.15780127 -0.093227364 -0.14665285
000100 35 26 84 3d 73 5b 2b be 75 12 05 3e dc 69 ab bd
       0.064526 -0.16734104 0.12995322 -0.083698004
000110 47 7f d3 3c ea 52 33 3e 17 9c cf 3d 22 73 d8 3d
       0.025817527 0.17512098 0.10137194 0.10568835
000120 9e d0 b6 3d 80 4c 4f 3c 26 24 08 3a 69 79 08 bc
       0.08926509 0.012652516 0.0005193375 -0.008329728
000130 0f e6 12 bd d1 25 d6 3d ff 7e ed bd a7 af 20 3e
       -0.035863932 0.10456432 -0.11596488 0.15692006
000140 ae 8a 73 bd 8a 97 ed 3d 01 b7 8a bd d2 2f 29 3d
       -0.059458427 0.116011694 -0.067731865 0.04130537
000150 75 7b ec 3c 9e 6b 37 be b6 a6 91 3d 5c e0 15 bd
       0.028867463 -0.17912146 0.07111876 -0.03659092
000160 b4 f1 27 be da d8 e7 bd b9 2f f7 bb f6 b8 2d 3e
       -0.16400796 -0.11320658 -0.007543531 0.16965088
000170 e3 9b ea bd e9 08 a3 3d e4 41 c3 3d c9 5e 3d be
       -0.11455514 0.07960684 0.09534052 -0.18493189
000180 f0 cd ac 3c c4 41 7b bd 89 a3 1d bd da 08 36 bc
       0.021094292 -0.061342016 -0.038486037 -0.011110509
000190 29 2b 27 3e a3 e4 b3 bd 29 42 79 3b 2e 71 85 bb
       0.16325058 -0.08783843 0.003803382 -0.00407233
0001a0 4a 04 b8 3d cf a4 7e bd a0 ce 34 be bd 4b b1 bd
       0.08985193 -0.062168892 -0.17656946 -0.08657024
0001b0 1b 0d 7f bd 09 01 7e 3d d4 09 91 bd e7 04 77 3d
       -0.062268358 0.062012706 -0.07081953 0.06030741
0001c0 34 79 07 be db e3 16 bd 51 23 b7 3d f1 ab ba bb
       -0.13229829 -0.036838394 0.08942283 -0.0056967665
0001d0 12 81 4c bc 7c 1d 0c 3e ab fd d0 bd e0 81 11 3d
       -0.012481945 0.13683122 -0.10204633 0.03552425
0001e0 db 9b 14 3e df e6 22 bd 9c 1d 31 3e 56 18 fe 3d
       0.14512579 -0.039770957 0.17296451 0.124069855
0001f0 38 7d c8 3c 29 74 23 3e 96 71 df 3d 6c 84 78 3d
       0.024473771 0.1596228 0.10910337 0.060673162

output_layer.bias f4 [2]
000000 b2 72 8a 3d 62 ae 92 3d
       0.06760158 0.07162167
